{
  "nodes": [
    {
      "op": "null", 
      "name": "data", 
      "inputs": []
    }, 
    {
      "op": "null", 
      "name": "fractal_resunet_cmtsk6_fractal_resunet_features0_conv2dnormed0_conv0_weight", 
      "attrs": {
        "__dtype__": "0", 
        "__lr_mult__": "1.0", 
        "__shape__": "(32, 0, 1, 1)", 
        "__storage_type__": "0", 
        "__wd_mult__": "1.0"
      }, 
      "inputs": []
    }, 
    {
      "op": "Convolution", 
      "name": "fractal_resunet_cmtsk6_fractal_resunet_features0_conv2dnormed0_conv0_fwd", 
      "attrs": {
        "dilate": "(1, 1)", 
        "kernel": "(1, 1)", 
        "layout": "NCHW", 
        "no_bias": "True", 
        "num_filter": "32", 
        "num_group": "1", 
        "pad": "(0, 0)", 
        "stride": "(1, 1)"
      }, 
      "inputs": [[0, 0, 0], [1, 0, 0]]
    }, 
    {
      "op": "null", 
      "name": "fractal_resunet_cmtsk6_fractal_resunet_features0_conv2dnormed0_groupnorm0_gamma", 
      "attrs": {
        "__dtype__": "0", 
        "__init__": "ones", 
        "__lr_mult__": "1.0", 
        "__shape__": "(4,)", 
        "__storage_type__": "0", 
        "__wd_mult__": "1.0"
      }, 
      "inputs": []
    }, 
    {
      "op": "null", 
      "name": "fractal_resunet_cmtsk6_fractal_resunet_features0_conv2dnormed0_groupnorm0_beta", 
      "attrs": {
        "__dtype__": "0", 
        "__init__": "zeros", 
        "__lr_mult__": "1.0", 
        "__shape__": "(4,)", 
        "__storage_type__": "0", 
        "__wd_mult__": "1.0"
      }, 
      "inputs": []
    }, 
    {
      "op": "GroupNorm", 
      "name": "fractal_resunet_cmtsk6_fractal_resunet_features0_conv2dnormed0_groupnorm0_groupnorm0", 
      "attrs": {
        "eps": "1e-05", 
        "num_groups": "4"
      }, 
      "inputs": [[2, 0, 0], [3, 0, 0], [4, 0, 0]]
    }, 
    {
      "op": "_copy", 
      "name": "fractal_resunet_cmtsk6_fractal_resunet_features0_identity0", 
      "inputs": [[5, 0, 0]]
    }, 
    {
      "op": "null", 
      "name": "fractal_resunet_cmtsk6_fractal_resunet_features0_fractalresnet_unit0_resnet_v2_block0_groupnorm0_gamma", 
      "attrs": {
        "__dtype__": "0", 
        "__init__": "ones", 
        "__lr_mult__": "1.0", 
        "__shape__": "(4,)", 
        "__storage_type__": "0", 
        "__wd_mult__": "1.0"
      }, 
      "inputs": []
    }, 
    {
      "op": "null", 
      "name": "fractal_resunet_cmtsk6_fractal_resunet_features0_fractalresnet_unit0_resnet_v2_block0_groupnorm0_beta", 
      "attrs": {
        "__dtype__": "0", 
        "__init__": "zeros", 
        "__lr_mult__": "1.0", 
        "__shape__": "(4,)", 
        "__storage_type__": "0", 
        "__wd_mult__": "1.0"
      }, 
      "inputs": []
    }, 
    {
      "op": "GroupNorm", 
      "name": "fractal_resunet_cmtsk6_fractal_resunet_features0_fractalresnet_unit0_resnet_v2_block0_groupnorm0_groupnorm0", 
      "attrs": {
        "eps": "1e-05", 
        "num_groups": "4"
      }, 
      "inputs": [[6, 0, 0], [7, 0, 0], [8, 0, 0]]
    }, 
    {
      "op": "relu", 
      "name": "fractal_resunet_cmtsk6_fractal_resunet_features0_fractalresnet_unit0_resnet_v2_block0_relu0", 
      "inputs": [[9, 0, 0]]
    }, 
    {
      "op": "null", 
      "name": "fractal_resunet_cmtsk6_fractal_resunet_features0_fractalresnet_unit0_resnet_v2_block0_conv0_weight", 
      "attrs": {
        "__dtype__": "0", 
        "__lr_mult__": "1.0", 
        "__shape__": "(32, 0, 3, 3)", 
        "__storage_type__": "0", 
        "__wd_mult__": "1.0"
      }, 
      "inputs": []
    }, 
    {
      "op": "Convolution", 
      "name": "fractal_resunet_cmtsk6_fractal_resunet_features0_fractalresnet_unit0_resnet_v2_block0_conv0_fwd", 
      "attrs": {
        "dilate": "(1, 1)", 
        "kernel": "(3, 3)", 
        "layout": "NCHW", 
        "no_bias": "True", 
        "num_filter": "32", 
        "num_group": "4", 
        "pad": "(1, 1)", 
        "stride": "(1, 1)"
      }, 
      "inputs": [[10, 0, 0], [11, 0, 0]]
    }, 
    {
      "op": "null", 
      "name": "fractal_resunet_cmtsk6_fractal_resunet_features0_fractalresnet_unit0_resnet_v2_block0_groupnorm1_gamma", 
      "attrs": {
        "__dtype__": "0", 
        "__init__": "ones", 
        "__lr_mult__": "1.0", 
        "__shape__": "(4,)", 
        "__storage_type__": "0", 
        "__wd_mult__": "1.0"
      }, 
      "inputs": []
    }, 
    {
      "op": "null", 
      "name": "fractal_resunet_cmtsk6_fractal_resunet_features0_fractalresnet_unit0_resnet_v2_block0_groupnorm1_beta", 
      "attrs": {
        "__dtype__": "0", 
        "__init__": "zeros", 
        "__lr_mult__": "1.0", 
        "__shape__": "(4,)", 
        "__storage_type__": "0", 
        "__wd_mult__": "1.0"
      }, 
      "inputs": []
    }, 
    {
      "op": "GroupNorm", 
      "name": "fractal_resunet_cmtsk6_fractal_resunet_features0_fractalresnet_unit0_resnet_v2_block0_groupnorm1_groupnorm0", 
      "attrs": {
        "eps": "1e-05", 
        "num_groups": "4"
      }, 
      "inputs": [[12, 0, 0], [13, 0, 0], [14, 0, 0]]
    }, 
    {
      "op": "relu", 
      "name": "fractal_resunet_cmtsk6_fractal_resunet_features0_fractalresnet_unit0_resnet_v2_block0_relu1", 
      "inputs": [[15, 0, 0]]
    }, 
    {
      "op": "null", 
      "name": "fractal_resunet_cmtsk6_fractal_resunet_features0_fractalresnet_unit0_resnet_v2_block0_conv1_weight", 
      "attrs": {
        "__dtype__": "0", 
        "__lr_mult__": "1.0", 
        "__shape__": "(32, 0, 3, 3)", 
        "__storage_type__": "0", 
        "__wd_mult__": "1.0"
      }, 
      "inputs": []
    }, 
    {
      "op": "null", 
      "name": "fractal_resunet_cmtsk6_fractal_resunet_features0_fractalresnet_unit0_resnet_v2_block0_conv1_bias", 
      "attrs": {
        "__dtype__": "0", 
        "__init__": "zeros", 
        "__lr_mult__": "1.0", 
        "__shape__": "(32,)", 
        "__storage_type__": "0", 
        "__wd_mult__": "1.0"
      }, 
      "inputs": []
    }, 
    {
      "op": "Convolution", 
      "name": "fractal_resunet_cmtsk6_fractal_resunet_features0_fractalresnet_unit0_resnet_v2_block0_conv1_fwd", 
      "attrs": {
        "dilate": "(1, 1)", 
        "kernel": "(3, 3)", 
        "layout": "NCHW", 
        "no_bias": "False", 
        "num_filter": "32", 
        "num_group": "4", 
        "pad": "(1, 1)", 
        "stride": "(1, 1)"
      }, 
      "inputs": [[16, 0, 0], [17, 0, 0], [18, 0, 0]]
    }, 
    {
      "op": "elemwise_add", 
      "name": "fractal_resunet_cmtsk6_fractal_resunet_features0_fractalresnet_unit0__plus0", 
      "inputs": [[6, 0, 0], [19, 0, 0]]
    }, 
    {
      "op": "ones_like", 
      "name": "fractal_resunet_cmtsk6_fractal_resunet_features0_fractalresnet_unit0_ones_like0", 
      "inputs": [[19, 0, 0]]
    }, 
    {
      "op": "null", 
      "name": "fractal_resunet_cmtsk6_fractal_resunet_features0_fractalresnet_unit0_gamma", 
      "attrs": {
        "__dtype__": "0", 
        "__init__": "[\"zero\", {}]", 
        "__lr_mult__": "1.0", 
        "__shape__": "(1,)", 
        "__storage_type__": "0", 
        "__wd_mult__": "1.0"
      }, 
      "inputs": []
    }, 
    {
      "op": "null", 
      "name": "fractal_resunet_cmtsk6_fractal_resunet_features0_fractalresnet_unit0_ftattention2d0_relftattention2d0_conv2dnormed0_conv0_weight", 
      "attrs": {
        "__dtype__": "0", 
        "__lr_mult__": "1.0", 
        "__shape__": "(32, 0, 3, 3)", 
        "__storage_type__": "0", 
        "__wd_mult__": "1.0"
      }, 
      "inputs": []
    }, 
    {
      "op": "Convolution", 
      "name": "fractal_resunet_cmtsk6_fractal_resunet_features0_fractalresnet_unit0_ftattention2d0_relftattention2d0_conv2dnormed0_conv0_fwd", 
      "attrs": {
        "dilate": "(1, 1)", 
        "kernel": "(3, 3)", 
        "layout": "NCHW", 
        "no_bias": "True", 
        "num_filter": "32", 
        "num_group": "1", 
        "pad": "(1, 1)", 
        "stride": "(1, 1)"
      }, 
      "inputs": [[6, 0, 0], [23, 0, 0]]
    }, 
    {
      "op": "null", 
      "name": "fractal_resunet_cmtsk6_fractal_resunet_features0_fractalresnet_unit0_ftattention2d0_relftattention2d0_conv2dnormed0_groupnorm0_gamma", 
      "attrs": {
        "__dtype__": "0", 
        "__init__": "ones", 
        "__lr_mult__": "1.0", 
        "__shape__": "(4,)", 
        "__storage_type__": "0", 
        "__wd_mult__": "1.0"
      }, 
      "inputs": []
    }, 
    {
      "op": "null", 
      "name": "fractal_resunet_cmtsk6_fractal_resunet_features0_fractalresnet_unit0_ftattention2d0_relftattention2d0_conv2dnormed0_groupnorm0_beta", 
      "attrs": {
        "__dtype__": "0", 
        "__init__": "zeros", 
        "__lr_mult__": "1.0", 
        "__shape__": "(4,)", 
        "__storage_type__": "0", 
        "__wd_mult__": "1.0"
      }, 
      "inputs": []
    }, 
    {
      "op": "GroupNorm", 
      "name": "fractal_resunet_cmtsk6_fractal_resunet_features0_fractalresnet_unit0_ftattention2d0_relftattention2d0_conv2dnormed0_groupnorm0_groupnorm0", 
      "attrs": {
        "eps": "1e-05", 
        "num_groups": "4"
      }, 
      "inputs": [[24, 0, 0], [25, 0, 0], [26, 0, 0]]
    }, 
    {
      "op": "sigmoid", 
      "name": "fractal_resunet_cmtsk6_fractal_resunet_features0_fractalresnet_unit0_ftattention2d0_relftattention2d0_sigmoid0", 
      "inputs": [[27, 0, 0]]
    }, 
    {
      "op": "null", 
      "name": "fractal_resunet_cmtsk6_fractal_resunet_features0_fractalresnet_unit0_ftattention2d0_relftattention2d0_conv2dnormed1_conv0_weight", 
      "attrs": {
        "__dtype__": "0", 
        "__lr_mult__": "1.0", 
        "__shape__": "(32, 0, 3, 3)", 
        "__storage_type__": "0", 
        "__wd_mult__": "1.0"
      }, 
      "inputs": []
    }, 
    {
      "op": "Convolution", 
      "name": "fractal_resunet_cmtsk6_fractal_resunet_features0_fractalresnet_unit0_ftattention2d0_relftattention2d0_conv2dnormed1_conv0_fwd", 
      "attrs": {
        "dilate": "(1, 1)", 
        "kernel": "(3, 3)", 
        "layout": "NCHW", 
        "no_bias": "True", 
        "num_filter": "32", 
        "num_group": "1", 
        "pad": "(1, 1)", 
        "stride": "(1, 1)"
      }, 
      "inputs": [[6, 0, 0], [29, 0, 0]]
    }, 
    {
      "op": "null", 
      "name": "fractal_resunet_cmtsk6_fractal_resunet_features0_fractalresnet_unit0_ftattention2d0_relftattention2d0_conv2dnormed1_groupnorm0_gamma", 
      "attrs": {
        "__dtype__": "0", 
        "__init__": "ones", 
        "__lr_mult__": "1.0", 
        "__shape__": "(4,)", 
        "__storage_type__": "0", 
        "__wd_mult__": "1.0"
      }, 
      "inputs": []
    }, 
    {
      "op": "null", 
      "name": "fractal_resunet_cmtsk6_fractal_resunet_features0_fractalresnet_unit0_ftattention2d0_relftattention2d0_conv2dnormed1_groupnorm0_beta", 
      "attrs": {
        "__dtype__": "0", 
        "__init__": "zeros", 
        "__lr_mult__": "1.0", 
        "__shape__": "(4,)", 
        "__storage_type__": "0", 
        "__wd_mult__": "1.0"
      }, 
      "inputs": []
    }, 
    {
      "op": "GroupNorm", 
      "name": "fractal_resunet_cmtsk6_fractal_resunet_features0_fractalresnet_unit0_ftattention2d0_relftattention2d0_conv2dnormed1_groupnorm0_groupnorm0", 
      "attrs": {
        "eps": "1e-05", 
        "num_groups": "4"
      }, 
      "inputs": [[30, 0, 0], [31, 0, 0], [32, 0, 0]]
    }, 
    {
      "op": "sigmoid", 
      "name": "fractal_resunet_cmtsk6_fractal_resunet_features0_fractalresnet_unit0_ftattention2d0_relftattention2d0_sigmoid1", 
      "inputs": [[33, 0, 0]]
    }, 
    {
      "op": "broadcast_mul", 
      "name": "fractal_resunet_cmtsk6_fractal_resunet_features0_fractalresnet_unit0_ftattention2d0_relftattention2d0_ftanimoto0_broadcast_mul0", 
      "inputs": [[28, 0, 0], [34, 0, 0]]
    }, 
    {
      "op": "sum", 
      "name": "fractal_resunet_cmtsk6_fractal_resunet_features0_fractalresnet_unit0_ftattention2d0_relftattention2d0_ftanimoto0_sum0", 
      "attrs": {
        "axis": "[2, 3]", 
        "keepdims": "True"
      }, 
      "inputs": [[35, 0, 0]]
    }, 
    {
      "op": "_plus_scalar", 
      "name": "fractal_resunet_cmtsk6_fractal_resunet_features0_fractalresnet_unit0_ftattention2d0_relftattention2d0_ftanimoto0__plusscalar0", 
      "attrs": {"scalar": "1e-05"}, 
      "inputs": [[36, 0, 0]]
    }, 
    {
      "op": "broadcast_mul", 
      "name": "fractal_resunet_cmtsk6_fractal_resunet_features0_fractalresnet_unit0_ftattention2d0_relftattention2d0_ftanimoto0_broadcast_mul1", 
      "inputs": [[28, 0, 0], [28, 0, 0]]
    }, 
    {
      "op": "sum", 
      "name": "fractal_resunet_cmtsk6_fractal_resunet_features0_fractalresnet_unit0_ftattention2d0_relftattention2d0_ftanimoto0_sum1", 
      "attrs": {
        "axis": "[2, 3]", 
        "keepdims": "True"
      }, 
      "inputs": [[38, 0, 0]]
    }, 
    {
      "op": "broadcast_mul", 
      "name": "fractal_resunet_cmtsk6_fractal_resunet_features0_fractalresnet_unit0_ftattention2d0_relftattention2d0_ftanimoto0_broadcast_mul2", 
      "inputs": [[34, 0, 0], [34, 0, 0]]
    }, 
    {
      "op": "sum", 
      "name": "fractal_resunet_cmtsk6_fractal_resunet_features0_fractalresnet_unit0_ftattention2d0_relftattention2d0_ftanimoto0_sum2", 
      "attrs": {
        "axis": "[2, 3]", 
        "keepdims": "True"
      }, 
      "inputs": [[40, 0, 0]]
    }, 
    {
      "op": "elemwise_add", 
      "name": "fractal_resunet_cmtsk6_fractal_resunet_features0_fractalresnet_unit0_ftattention2d0_relftattention2d0_ftanimoto0__plus0", 
      "inputs": [[39, 0, 0], [41, 0, 0]]
    }, 
    {
      "op": "_mul_scalar", 
      "name": "fractal_resunet_cmtsk6_fractal_resunet_features0_fractalresnet_unit0_ftattention2d0_relftattention2d0_ftanimoto0__mulscalar0", 
      "attrs": {"scalar": "1.0"}, 
      "inputs": [[42, 0, 0]]
    }, 
    {
      "op": "_mul_scalar", 
      "name": "fractal_resunet_cmtsk6_fractal_resunet_features0_fractalresnet_unit0_ftattention2d0_relftattention2d0_ftanimoto0__mulscalar1", 
      "attrs": {"scalar": "-1.0"}, 
      "inputs": [[36, 0, 0]]
    }, 
    {
      "op": "broadcast_add", 
      "name": "fractal_resunet_cmtsk6_fractal_resunet_features0_fractalresnet_unit0_ftattention2d0_relftattention2d0_ftanimoto0_broadcast_add0", 
      "inputs": [[43, 0, 0], [44, 0, 0]]
    }, 
    {
      "op": "_plus_scalar", 
      "name": "fractal_resunet_cmtsk6_fractal_resunet_features0_fractalresnet_unit0_ftattention2d0_relftattention2d0_ftanimoto0__plusscalar1", 
      "attrs": {"scalar": "1e-05"}, 
      "inputs": [[45, 0, 0]]
    }, 
    {
      "op": "reciprocal", 
      "name": "fractal_resunet_cmtsk6_fractal_resunet_features0_fractalresnet_unit0_ftattention2d0_relftattention2d0_ftanimoto0_reciprocal0", 
      "inputs": [[46, 0, 0]]
    }, 
    {
      "op": "_plus_scalar", 
      "name": "fractal_resunet_cmtsk6_fractal_resunet_features0_fractalresnet_unit0_ftattention2d0_relftattention2d0_ftanimoto0__plusscalar2", 
      "attrs": {"scalar": "0.0"}, 
      "inputs": [[47, 0, 0]]
    }, 
    {
      "op": "elemwise_add", 
      "name": "fractal_resunet_cmtsk6_fractal_resunet_features0_fractalresnet_unit0_ftattention2d0_relftattention2d0_ftanimoto0__plus1", 
      "inputs": [[39, 0, 0], [41, 0, 0]]
    }, 
    {
      "op": "_mul_scalar", 
      "name": "fractal_resunet_cmtsk6_fractal_resunet_features0_fractalresnet_unit0_ftattention2d0_relftattention2d0_ftanimoto0__mulscalar2", 
      "attrs": {"scalar": "2.0"}, 
      "inputs": [[49, 0, 0]]
    }, 
    {
      "op": "_mul_scalar", 
      "name": "fractal_resunet_cmtsk6_fractal_resunet_features0_fractalresnet_unit0_ftattention2d0_relftattention2d0_ftanimoto0__mulscalar3", 
      "attrs": {"scalar": "-3.0"}, 
      "inputs": [[36, 0, 0]]
    }, 
    {
      "op": "broadcast_add", 
      "name": "fractal_resunet_cmtsk6_fractal_resunet_features0_fractalresnet_unit0_ftattention2d0_relftattention2d0_ftanimoto0_broadcast_add1", 
      "inputs": [[50, 0, 0], [51, 0, 0]]
    }, 
    {
      "op": "_plus_scalar", 
      "name": "fractal_resunet_cmtsk6_fractal_resunet_features0_fractalresnet_unit0_ftattention2d0_relftattention2d0_ftanimoto0__plusscalar3", 
      "attrs": {"scalar": "1e-05"}, 
      "inputs": [[52, 0, 0]]
    }, 
    {
      "op": "reciprocal", 
      "name": "fractal_resunet_cmtsk6_fractal_resunet_features0_fractalresnet_unit0_ftattention2d0_relftattention2d0_ftanimoto0_reciprocal1", 
      "inputs": [[53, 0, 0]]
    }, 
    {
      "op": "elemwise_add", 
      "name": "fractal_resunet_cmtsk6_fractal_resunet_features0_fractalresnet_unit0_ftattention2d0_relftattention2d0_ftanimoto0__plus2", 
      "inputs": [[48, 0, 0], [54, 0, 0]]
    }, 
    {
      "op": "elemwise_add", 
      "name": "fractal_resunet_cmtsk6_fractal_resunet_features0_fractalresnet_unit0_ftattention2d0_relftattention2d0_ftanimoto0__plus3", 
      "inputs": [[39, 0, 0], [41, 0, 0]]
    }, 
    {
      "op": "_mul_scalar", 
      "name": "fractal_resunet_cmtsk6_fractal_resunet_features0_fractalresnet_unit0_ftattention2d0_relftattention2d0_ftanimoto0__mulscalar4", 
      "attrs": {"scalar": "4.0"}, 
      "inputs": [[56, 0, 0]]
    }, 
    {
      "op": "_mul_scalar", 
      "name": "fractal_resunet_cmtsk6_fractal_resunet_features0_fractalresnet_unit0_ftattention2d0_relftattention2d0_ftanimoto0__mulscalar5", 
      "attrs": {"scalar": "-7.0"}, 
      "inputs": [[36, 0, 0]]
    }, 
    {
      "op": "broadcast_add", 
      "name": "fractal_resunet_cmtsk6_fractal_resunet_features0_fractalresnet_unit0_ftattention2d0_relftattention2d0_ftanimoto0_broadcast_add2", 
      "inputs": [[57, 0, 0], [58, 0, 0]]
    }, 
    {
      "op": "_plus_scalar", 
      "name": "fractal_resunet_cmtsk6_fractal_resunet_features0_fractalresnet_unit0_ftattention2d0_relftattention2d0_ftanimoto0__plusscalar4", 
      "attrs": {"scalar": "1e-05"}, 
      "inputs": [[59, 0, 0]]
    }, 
    {
      "op": "reciprocal", 
      "name": "fractal_resunet_cmtsk6_fractal_resunet_features0_fractalresnet_unit0_ftattention2d0_relftattention2d0_ftanimoto0_reciprocal2", 
      "inputs": [[60, 0, 0]]
    }, 
    {
      "op": "elemwise_add", 
      "name": "fractal_resunet_cmtsk6_fractal_resunet_features0_fractalresnet_unit0_ftattention2d0_relftattention2d0_ftanimoto0__plus4", 
      "inputs": [[55, 0, 0], [61, 0, 0]]
    }, 
    {
      "op": "elemwise_add", 
      "name": "fractal_resunet_cmtsk6_fractal_resunet_features0_fractalresnet_unit0_ftattention2d0_relftattention2d0_ftanimoto0__plus5", 
      "inputs": [[39, 0, 0], [41, 0, 0]]
    }, 
    {
      "op": "_mul_scalar", 
      "name": "fractal_resunet_cmtsk6_fractal_resunet_features0_fractalresnet_unit0_ftattention2d0_relftattention2d0_ftanimoto0__mulscalar6", 
      "attrs": {"scalar": "8.0"}, 
      "inputs": [[63, 0, 0]]
    }, 
    {
      "op": "_mul_scalar", 
      "name": "fractal_resunet_cmtsk6_fractal_resunet_features0_fractalresnet_unit0_ftattention2d0_relftattention2d0_ftanimoto0__mulscalar7", 
      "attrs": {"scalar": "-15.0"}, 
      "inputs": [[36, 0, 0]]
    }, 
    {
      "op": "broadcast_add", 
      "name": "fractal_resunet_cmtsk6_fractal_resunet_features0_fractalresnet_unit0_ftattention2d0_relftattention2d0_ftanimoto0_broadcast_add3", 
      "inputs": [[64, 0, 0], [65, 0, 0]]
    }, 
    {
      "op": "_plus_scalar", 
      "name": "fractal_resunet_cmtsk6_fractal_resunet_features0_fractalresnet_unit0_ftattention2d0_relftattention2d0_ftanimoto0__plusscalar5", 
      "attrs": {"scalar": "1e-05"}, 
      "inputs": [[66, 0, 0]]
    }, 
    {
      "op": "reciprocal", 
      "name": "fractal_resunet_cmtsk6_fractal_resunet_features0_fractalresnet_unit0_ftattention2d0_relftattention2d0_ftanimoto0_reciprocal3", 
      "inputs": [[67, 0, 0]]
    }, 
    {
      "op": "elemwise_add", 
      "name": "fractal_resunet_cmtsk6_fractal_resunet_features0_fractalresnet_unit0_ftattention2d0_relftattention2d0_ftanimoto0__plus6", 
      "inputs": [[62, 0, 0], [68, 0, 0]]
    }, 
    {
      "op": "elemwise_add", 
      "name": "fractal_resunet_cmtsk6_fractal_resunet_features0_fractalresnet_unit0_ftattention2d0_relftattention2d0_ftanimoto0__plus7", 
      "inputs": [[39, 0, 0], [41, 0, 0]]
    }, 
    {
      "op": "_mul_scalar", 
      "name": "fractal_resunet_cmtsk6_fractal_resunet_features0_fractalresnet_unit0_ftattention2d0_relftattention2d0_ftanimoto0__mulscalar8", 
      "attrs": {"scalar": "16.0"}, 
      "inputs": [[70, 0, 0]]
    }, 
    {
      "op": "_mul_scalar", 
      "name": "fractal_resunet_cmtsk6_fractal_resunet_features0_fractalresnet_unit0_ftattention2d0_relftattention2d0_ftanimoto0__mulscalar9", 
      "attrs": {"scalar": "-31.0"}, 
      "inputs": [[36, 0, 0]]
    }, 
    {
      "op": "broadcast_add", 
      "name": "fractal_resunet_cmtsk6_fractal_resunet_features0_fractalresnet_unit0_ftattention2d0_relftattention2d0_ftanimoto0_broadcast_add4", 
      "inputs": [[71, 0, 0], [72, 0, 0]]
    }, 
    {
      "op": "_plus_scalar", 
      "name": "fractal_resunet_cmtsk6_fractal_resunet_features0_fractalresnet_unit0_ftattention2d0_relftattention2d0_ftanimoto0__plusscalar6", 
      "attrs": {"scalar": "1e-05"}, 
      "inputs": [[73, 0, 0]]
    }, 
    {
      "op": "reciprocal", 
      "name": "fractal_resunet_cmtsk6_fractal_resunet_features0_fractalresnet_unit0_ftattention2d0_relftattention2d0_ftanimoto0_reciprocal4", 
      "inputs": [[74, 0, 0]]
    }, 
    {
      "op": "elemwise_add", 
      "name": "fractal_resunet_cmtsk6_fractal_resunet_features0_fractalresnet_unit0_ftattention2d0_relftattention2d0_ftanimoto0__plus8", 
      "inputs": [[69, 0, 0], [75, 0, 0]]
    }, 
    {
      "op": "broadcast_mul", 
      "name": "fractal_resunet_cmtsk6_fractal_resunet_features0_fractalresnet_unit0_ftattention2d0_relftattention2d0_ftanimoto0_broadcast_mul3", 
      "inputs": [[37, 0, 0], [76, 0, 0]]
    }, 
    {
      "op": "_mul_scalar", 
      "name": "fractal_resunet_cmtsk6_fractal_resunet_features0_fractalresnet_unit0_ftattention2d0_relftattention2d0_ftanimoto0__mulscalar10", 
      "attrs": {"scalar": "0.2"}, 
      "inputs": [[77, 0, 0]]
    }, 
    {
      "op": "_rminus_scalar", 
      "name": "fractal_resunet_cmtsk6_fractal_resunet_features0_fractalresnet_unit0_ftattention2d0_relftattention2d0_ftanimoto0__rminusscalar0", 
      "attrs": {"scalar": "1.0"}, 
      "inputs": [[28, 0, 0]]
    }, 
    {
      "op": "_rminus_scalar", 
      "name": "fractal_resunet_cmtsk6_fractal_resunet_features0_fractalresnet_unit0_ftattention2d0_relftattention2d0_ftanimoto0__rminusscalar1", 
      "attrs": {"scalar": "1.0"}, 
      "inputs": [[34, 0, 0]]
    }, 
    {
      "op": "broadcast_mul", 
      "name": "fractal_resunet_cmtsk6_fractal_resunet_features0_fractalresnet_unit0_ftattention2d0_relftattention2d0_ftanimoto0_broadcast_mul4", 
      "inputs": [[79, 0, 0], [80, 0, 0]]
    }, 
    {
      "op": "sum", 
      "name": "fractal_resunet_cmtsk6_fractal_resunet_features0_fractalresnet_unit0_ftattention2d0_relftattention2d0_ftanimoto0_sum3", 
      "attrs": {
        "axis": "[2, 3]", 
        "keepdims": "True"
      }, 
      "inputs": [[81, 0, 0]]
    }, 
    {
      "op": "_plus_scalar", 
      "name": "fractal_resunet_cmtsk6_fractal_resunet_features0_fractalresnet_unit0_ftattention2d0_relftattention2d0_ftanimoto0__plusscalar7", 
      "attrs": {"scalar": "1e-05"}, 
      "inputs": [[82, 0, 0]]
    }, 
    {
      "op": "broadcast_mul", 
      "name": "fractal_resunet_cmtsk6_fractal_resunet_features0_fractalresnet_unit0_ftattention2d0_relftattention2d0_ftanimoto0_broadcast_mul5", 
      "inputs": [[79, 0, 0], [79, 0, 0]]
    }, 
    {
      "op": "sum", 
      "name": "fractal_resunet_cmtsk6_fractal_resunet_features0_fractalresnet_unit0_ftattention2d0_relftattention2d0_ftanimoto0_sum4", 
      "attrs": {
        "axis": "[2, 3]", 
        "keepdims": "True"
      }, 
      "inputs": [[84, 0, 0]]
    }, 
    {
      "op": "broadcast_mul", 
      "name": "fractal_resunet_cmtsk6_fractal_resunet_features0_fractalresnet_unit0_ftattention2d0_relftattention2d0_ftanimoto0_broadcast_mul6", 
      "inputs": [[80, 0, 0], [80, 0, 0]]
    }, 
    {
      "op": "sum", 
      "name": "fractal_resunet_cmtsk6_fractal_resunet_features0_fractalresnet_unit0_ftattention2d0_relftattention2d0_ftanimoto0_sum5", 
      "attrs": {
        "axis": "[2, 3]", 
        "keepdims": "True"
      }, 
      "inputs": [[86, 0, 0]]
    }, 
    {
      "op": "elemwise_add", 
      "name": "fractal_resunet_cmtsk6_fractal_resunet_features0_fractalresnet_unit0_ftattention2d0_relftattention2d0_ftanimoto0__plus9", 
      "inputs": [[85, 0, 0], [87, 0, 0]]
    }, 
    {
      "op": "_mul_scalar", 
      "name": "fractal_resunet_cmtsk6_fractal_resunet_features0_fractalresnet_unit0_ftattention2d0_relftattention2d0_ftanimoto0__mulscalar11", 
      "attrs": {"scalar": "1.0"}, 
      "inputs": [[88, 0, 0]]
    }, 
    {
      "op": "_mul_scalar", 
      "name": "fractal_resunet_cmtsk6_fractal_resunet_features0_fractalresnet_unit0_ftattention2d0_relftattention2d0_ftanimoto0__mulscalar12", 
      "attrs": {"scalar": "-1.0"}, 
      "inputs": [[82, 0, 0]]
    }, 
    {
      "op": "broadcast_add", 
      "name": "fractal_resunet_cmtsk6_fractal_resunet_features0_fractalresnet_unit0_ftattention2d0_relftattention2d0_ftanimoto0_broadcast_add5", 
      "inputs": [[89, 0, 0], [90, 0, 0]]
    }, 
    {
      "op": "_plus_scalar", 
      "name": "fractal_resunet_cmtsk6_fractal_resunet_features0_fractalresnet_unit0_ftattention2d0_relftattention2d0_ftanimoto0__plusscalar8", 
      "attrs": {"scalar": "1e-05"}, 
      "inputs": [[91, 0, 0]]
    }, 
    {
      "op": "reciprocal", 
      "name": "fractal_resunet_cmtsk6_fractal_resunet_features0_fractalresnet_unit0_ftattention2d0_relftattention2d0_ftanimoto0_reciprocal5", 
      "inputs": [[92, 0, 0]]
    }, 
    {
      "op": "_plus_scalar", 
      "name": "fractal_resunet_cmtsk6_fractal_resunet_features0_fractalresnet_unit0_ftattention2d0_relftattention2d0_ftanimoto0__plusscalar9", 
      "attrs": {"scalar": "0.0"}, 
      "inputs": [[93, 0, 0]]
    }, 
    {
      "op": "elemwise_add", 
      "name": "fractal_resunet_cmtsk6_fractal_resunet_features0_fractalresnet_unit0_ftattention2d0_relftattention2d0_ftanimoto0__plus10", 
      "inputs": [[85, 0, 0], [87, 0, 0]]
    }, 
    {
      "op": "_mul_scalar", 
      "name": "fractal_resunet_cmtsk6_fractal_resunet_features0_fractalresnet_unit0_ftattention2d0_relftattention2d0_ftanimoto0__mulscalar13", 
      "attrs": {"scalar": "2.0"}, 
      "inputs": [[95, 0, 0]]
    }, 
    {
      "op": "_mul_scalar", 
      "name": "fractal_resunet_cmtsk6_fractal_resunet_features0_fractalresnet_unit0_ftattention2d0_relftattention2d0_ftanimoto0__mulscalar14", 
      "attrs": {"scalar": "-3.0"}, 
      "inputs": [[82, 0, 0]]
    }, 
    {
      "op": "broadcast_add", 
      "name": "fractal_resunet_cmtsk6_fractal_resunet_features0_fractalresnet_unit0_ftattention2d0_relftattention2d0_ftanimoto0_broadcast_add6", 
      "inputs": [[96, 0, 0], [97, 0, 0]]
    }, 
    {
      "op": "_plus_scalar", 
      "name": "fractal_resunet_cmtsk6_fractal_resunet_features0_fractalresnet_unit0_ftattention2d0_relftattention2d0_ftanimoto0__plusscalar10", 
      "attrs": {"scalar": "1e-05"}, 
      "inputs": [[98, 0, 0]]
    }, 
    {
      "op": "reciprocal", 
      "name": "fractal_resunet_cmtsk6_fractal_resunet_features0_fractalresnet_unit0_ftattention2d0_relftattention2d0_ftanimoto0_reciprocal6", 
      "inputs": [[99, 0, 0]]
    }, 
    {
      "op": "elemwise_add", 
      "name": "fractal_resunet_cmtsk6_fractal_resunet_features0_fractalresnet_unit0_ftattention2d0_relftattention2d0_ftanimoto0__plus11", 
      "inputs": [[94, 0, 0], [100, 0, 0]]
    }, 
    {
      "op": "elemwise_add", 
      "name": "fractal_resunet_cmtsk6_fractal_resunet_features0_fractalresnet_unit0_ftattention2d0_relftattention2d0_ftanimoto0__plus12", 
      "inputs": [[85, 0, 0], [87, 0, 0]]
    }, 
    {
      "op": "_mul_scalar", 
      "name": "fractal_resunet_cmtsk6_fractal_resunet_features0_fractalresnet_unit0_ftattention2d0_relftattention2d0_ftanimoto0__mulscalar15", 
      "attrs": {"scalar": "4.0"}, 
      "inputs": [[102, 0, 0]]
    }, 
    {
      "op": "_mul_scalar", 
      "name": "fractal_resunet_cmtsk6_fractal_resunet_features0_fractalresnet_unit0_ftattention2d0_relftattention2d0_ftanimoto0__mulscalar16", 
      "attrs": {"scalar": "-7.0"}, 
      "inputs": [[82, 0, 0]]
    }, 
    {
      "op": "broadcast_add", 
      "name": "fractal_resunet_cmtsk6_fractal_resunet_features0_fractalresnet_unit0_ftattention2d0_relftattention2d0_ftanimoto0_broadcast_add7", 
      "inputs": [[103, 0, 0], [104, 0, 0]]
    }, 
    {
      "op": "_plus_scalar", 
      "name": "fractal_resunet_cmtsk6_fractal_resunet_features0_fractalresnet_unit0_ftattention2d0_relftattention2d0_ftanimoto0__plusscalar11", 
      "attrs": {"scalar": "1e-05"}, 
      "inputs": [[105, 0, 0]]
    }, 
    {
      "op": "reciprocal", 
      "name": "fractal_resunet_cmtsk6_fractal_resunet_features0_fractalresnet_unit0_ftattention2d0_relftattention2d0_ftanimoto0_reciprocal7", 
      "inputs": [[106, 0, 0]]
    }, 
    {
      "op": "elemwise_add", 
      "name": "fractal_resunet_cmtsk6_fractal_resunet_features0_fractalresnet_unit0_ftattention2d0_relftattention2d0_ftanimoto0__plus13", 
      "inputs": [[101, 0, 0], [107, 0, 0]]
    }, 
    {
      "op": "elemwise_add", 
      "name": "fractal_resunet_cmtsk6_fractal_resunet_features0_fractalresnet_unit0_ftattention2d0_relftattention2d0_ftanimoto0__plus14", 
      "inputs": [[85, 0, 0], [87, 0, 0]]
    }, 
    {
      "op": "_mul_scalar", 
      "name": "fractal_resunet_cmtsk6_fractal_resunet_features0_fractalresnet_unit0_ftattention2d0_relftattention2d0_ftanimoto0__mulscalar17", 
      "attrs": {"scalar": "8.0"}, 
      "inputs": [[109, 0, 0]]
    }, 
    {
      "op": "_mul_scalar", 
      "name": "fractal_resunet_cmtsk6_fractal_resunet_features0_fractalresnet_unit0_ftattention2d0_relftattention2d0_ftanimoto0__mulscalar18", 
      "attrs": {"scalar": "-15.0"}, 
      "inputs": [[82, 0, 0]]
    }, 
    {
      "op": "broadcast_add", 
      "name": "fractal_resunet_cmtsk6_fractal_resunet_features0_fractalresnet_unit0_ftattention2d0_relftattention2d0_ftanimoto0_broadcast_add8", 
      "inputs": [[110, 0, 0], [111, 0, 0]]
    }, 
    {
      "op": "_plus_scalar", 
      "name": "fractal_resunet_cmtsk6_fractal_resunet_features0_fractalresnet_unit0_ftattention2d0_relftattention2d0_ftanimoto0__plusscalar12", 
      "attrs": {"scalar": "1e-05"}, 
      "inputs": [[112, 0, 0]]
    }, 
    {
      "op": "reciprocal", 
      "name": "fractal_resunet_cmtsk6_fractal_resunet_features0_fractalresnet_unit0_ftattention2d0_relftattention2d0_ftanimoto0_reciprocal8", 
      "inputs": [[113, 0, 0]]
    }, 
    {
      "op": "elemwise_add", 
      "name": "fractal_resunet_cmtsk6_fractal_resunet_features0_fractalresnet_unit0_ftattention2d0_relftattention2d0_ftanimoto0__plus15", 
      "inputs": [[108, 0, 0], [114, 0, 0]]
    }, 
    {
      "op": "elemwise_add", 
      "name": "fractal_resunet_cmtsk6_fractal_resunet_features0_fractalresnet_unit0_ftattention2d0_relftattention2d0_ftanimoto0__plus16", 
      "inputs": [[85, 0, 0], [87, 0, 0]]
    }, 
    {
      "op": "_mul_scalar", 
      "name": "fractal_resunet_cmtsk6_fractal_resunet_features0_fractalresnet_unit0_ftattention2d0_relftattention2d0_ftanimoto0__mulscalar19", 
      "attrs": {"scalar": "16.0"}, 
      "inputs": [[116, 0, 0]]
    }, 
    {
      "op": "_mul_scalar", 
      "name": "fractal_resunet_cmtsk6_fractal_resunet_features0_fractalresnet_unit0_ftattention2d0_relftattention2d0_ftanimoto0__mulscalar20", 
      "attrs": {"scalar": "-31.0"}, 
      "inputs": [[82, 0, 0]]
    }, 
    {
      "op": "broadcast_add", 
      "name": "fractal_resunet_cmtsk6_fractal_resunet_features0_fractalresnet_unit0_ftattention2d0_relftattention2d0_ftanimoto0_broadcast_add9", 
      "inputs": [[117, 0, 0], [118, 0, 0]]
    }, 
    {
      "op": "_plus_scalar", 
      "name": "fractal_resunet_cmtsk6_fractal_resunet_features0_fractalresnet_unit0_ftattention2d0_relftattention2d0_ftanimoto0__plusscalar13", 
      "attrs": {"scalar": "1e-05"}, 
      "inputs": [[119, 0, 0]]
    }, 
    {
      "op": "reciprocal", 
      "name": "fractal_resunet_cmtsk6_fractal_resunet_features0_fractalresnet_unit0_ftattention2d0_relftattention2d0_ftanimoto0_reciprocal9", 
      "inputs": [[120, 0, 0]]
    }, 
    {
      "op": "elemwise_add", 
      "name": "fractal_resunet_cmtsk6_fractal_resunet_features0_fractalresnet_unit0_ftattention2d0_relftattention2d0_ftanimoto0__plus17", 
      "inputs": [[115, 0, 0], [121, 0, 0]]
    }, 
    {
      "op": "broadcast_mul", 
      "name": "fractal_resunet_cmtsk6_fractal_resunet_features0_fractalresnet_unit0_ftattention2d0_relftattention2d0_ftanimoto0_broadcast_mul7", 
      "inputs": [[83, 0, 0], [122, 0, 0]]
    }, 
    {
      "op": "_mul_scalar", 
      "name": "fractal_resunet_cmtsk6_fractal_resunet_features0_fractalresnet_unit0_ftattention2d0_relftattention2d0_ftanimoto0__mulscalar21", 
      "attrs": {"scalar": "0.2"}, 
      "inputs": [[123, 0, 0]]
    }, 
    {
      "op": "elemwise_add", 
      "name": "fractal_resunet_cmtsk6_fractal_resunet_features0_fractalresnet_unit0_ftattention2d0_relftattention2d0_ftanimoto0__plus18", 
      "inputs": [[78, 0, 0], [124, 0, 0]]
    }, 
    {
      "op": "_mul_scalar", 
      "name": "fractal_resunet_cmtsk6_fractal_resunet_features0_fractalresnet_unit0_ftattention2d0_relftattention2d0_ftanimoto0__mulscalar22", 
      "attrs": {"scalar": "0.5"}, 
      "inputs": [[125, 0, 0]]
    }, 
    {
      "op": "null", 
      "name": "fractal_resunet_cmtsk6_fractal_resunet_features0_fractalresnet_unit0_ftattention2d0_relftattention2d0_conv2dnormed2_conv0_weight", 
      "attrs": {
        "__dtype__": "0", 
        "__lr_mult__": "1.0", 
        "__shape__": "(32, 0, 3, 3)", 
        "__storage_type__": "0", 
        "__wd_mult__": "1.0"
      }, 
      "inputs": []
    }, 
    {
      "op": "Convolution", 
      "name": "fractal_resunet_cmtsk6_fractal_resunet_features0_fractalresnet_unit0_ftattention2d0_relftattention2d0_conv2dnormed2_conv0_fwd", 
      "attrs": {
        "dilate": "(1, 1)", 
        "kernel": "(3, 3)", 
        "layout": "NCHW", 
        "no_bias": "True", 
        "num_filter": "32", 
        "num_group": "1", 
        "pad": "(1, 1)", 
        "stride": "(1, 1)"
      }, 
      "inputs": [[6, 0, 0], [127, 0, 0]]
    }, 
    {
      "op": "null", 
      "name": "fractal_resunet_cmtsk6_fractal_resunet_features0_fractalresnet_unit0_ftattention2d0_relftattention2d0_conv2dnormed2_groupnorm0_gamma", 
      "attrs": {
        "__dtype__": "0", 
        "__init__": "ones", 
        "__lr_mult__": "1.0", 
        "__shape__": "(4,)", 
        "__storage_type__": "0", 
        "__wd_mult__": "1.0"
      }, 
      "inputs": []
    }, 
    {
      "op": "null", 
      "name": "fractal_resunet_cmtsk6_fractal_resunet_features0_fractalresnet_unit0_ftattention2d0_relftattention2d0_conv2dnormed2_groupnorm0_beta", 
      "attrs": {
        "__dtype__": "0", 
        "__init__": "zeros", 
        "__lr_mult__": "1.0", 
        "__shape__": "(4,)", 
        "__storage_type__": "0", 
        "__wd_mult__": "1.0"
      }, 
      "inputs": []
    }, 
    {
      "op": "GroupNorm", 
      "name": "fractal_resunet_cmtsk6_fractal_resunet_features0_fractalresnet_unit0_ftattention2d0_relftattention2d0_conv2dnormed2_groupnorm0_groupnorm0", 
      "attrs": {
        "eps": "1e-05", 
        "num_groups": "4"
      }, 
      "inputs": [[128, 0, 0], [129, 0, 0], [130, 0, 0]]
    }, 
    {
      "op": "sigmoid", 
      "name": "fractal_resunet_cmtsk6_fractal_resunet_features0_fractalresnet_unit0_ftattention2d0_relftattention2d0_sigmoid2", 
      "inputs": [[131, 0, 0]]
    }, 
    {
      "op": "broadcast_mul", 
      "name": "fractal_resunet_cmtsk6_fractal_resunet_features0_fractalresnet_unit0_ftattention2d0_relftattention2d0_broadcast_mul1", 
      "inputs": [[126, 0, 0], [132, 0, 0]]
    }, 
    {
      "op": "broadcast_mul", 
      "name": "fractal_resunet_cmtsk6_fractal_resunet_features0_fractalresnet_unit0_ftattention2d0_relftattention2d0_ftanimoto1_broadcast_mul0", 
      "inputs": [[28, 0, 0], [34, 0, 0]]
    }, 
    {
      "op": "sum", 
      "name": "fractal_resunet_cmtsk6_fractal_resunet_features0_fractalresnet_unit0_ftattention2d0_relftattention2d0_ftanimoto1_sum0", 
      "attrs": {
        "axis": "1", 
        "keepdims": "True"
      }, 
      "inputs": [[134, 0, 0]]
    }, 
    {
      "op": "_plus_scalar", 
      "name": "fractal_resunet_cmtsk6_fractal_resunet_features0_fractalresnet_unit0_ftattention2d0_relftattention2d0_ftanimoto1__plusscalar0", 
      "attrs": {"scalar": "1e-05"}, 
      "inputs": [[135, 0, 0]]
    }, 
    {
      "op": "broadcast_mul", 
      "name": "fractal_resunet_cmtsk6_fractal_resunet_features0_fractalresnet_unit0_ftattention2d0_relftattention2d0_ftanimoto1_broadcast_mul1", 
      "inputs": [[28, 0, 0], [28, 0, 0]]
    }, 
    {
      "op": "sum", 
      "name": "fractal_resunet_cmtsk6_fractal_resunet_features0_fractalresnet_unit0_ftattention2d0_relftattention2d0_ftanimoto1_sum1", 
      "attrs": {
        "axis": "1", 
        "keepdims": "True"
      }, 
      "inputs": [[137, 0, 0]]
    }, 
    {
      "op": "broadcast_mul", 
      "name": "fractal_resunet_cmtsk6_fractal_resunet_features0_fractalresnet_unit0_ftattention2d0_relftattention2d0_ftanimoto1_broadcast_mul2", 
      "inputs": [[34, 0, 0], [34, 0, 0]]
    }, 
    {
      "op": "sum", 
      "name": "fractal_resunet_cmtsk6_fractal_resunet_features0_fractalresnet_unit0_ftattention2d0_relftattention2d0_ftanimoto1_sum2", 
      "attrs": {
        "axis": "1", 
        "keepdims": "True"
      }, 
      "inputs": [[139, 0, 0]]
    }, 
    {
      "op": "elemwise_add", 
      "name": "fractal_resunet_cmtsk6_fractal_resunet_features0_fractalresnet_unit0_ftattention2d0_relftattention2d0_ftanimoto1__plus0", 
      "inputs": [[138, 0, 0], [140, 0, 0]]
    }, 
    {
      "op": "_mul_scalar", 
      "name": "fractal_resunet_cmtsk6_fractal_resunet_features0_fractalresnet_unit0_ftattention2d0_relftattention2d0_ftanimoto1__mulscalar0", 
      "attrs": {"scalar": "1.0"}, 
      "inputs": [[141, 0, 0]]
    }, 
    {
      "op": "_mul_scalar", 
      "name": "fractal_resunet_cmtsk6_fractal_resunet_features0_fractalresnet_unit0_ftattention2d0_relftattention2d0_ftanimoto1__mulscalar1", 
      "attrs": {"scalar": "-1.0"}, 
      "inputs": [[135, 0, 0]]
    }, 
    {
      "op": "broadcast_add", 
      "name": "fractal_resunet_cmtsk6_fractal_resunet_features0_fractalresnet_unit0_ftattention2d0_relftattention2d0_ftanimoto1_broadcast_add0", 
      "inputs": [[142, 0, 0], [143, 0, 0]]
    }, 
    {
      "op": "_plus_scalar", 
      "name": "fractal_resunet_cmtsk6_fractal_resunet_features0_fractalresnet_unit0_ftattention2d0_relftattention2d0_ftanimoto1__plusscalar1", 
      "attrs": {"scalar": "1e-05"}, 
      "inputs": [[144, 0, 0]]
    }, 
    {
      "op": "reciprocal", 
      "name": "fractal_resunet_cmtsk6_fractal_resunet_features0_fractalresnet_unit0_ftattention2d0_relftattention2d0_ftanimoto1_reciprocal0", 
      "inputs": [[145, 0, 0]]
    }, 
    {
      "op": "_plus_scalar", 
      "name": "fractal_resunet_cmtsk6_fractal_resunet_features0_fractalresnet_unit0_ftattention2d0_relftattention2d0_ftanimoto1__plusscalar2", 
      "attrs": {"scalar": "0.0"}, 
      "inputs": [[146, 0, 0]]
    }, 
    {
      "op": "elemwise_add", 
      "name": "fractal_resunet_cmtsk6_fractal_resunet_features0_fractalresnet_unit0_ftattention2d0_relftattention2d0_ftanimoto1__plus1", 
      "inputs": [[138, 0, 0], [140, 0, 0]]
    }, 
    {
      "op": "_mul_scalar", 
      "name": "fractal_resunet_cmtsk6_fractal_resunet_features0_fractalresnet_unit0_ftattention2d0_relftattention2d0_ftanimoto1__mulscalar2", 
      "attrs": {"scalar": "2.0"}, 
      "inputs": [[148, 0, 0]]
    }, 
    {
      "op": "_mul_scalar", 
      "name": "fractal_resunet_cmtsk6_fractal_resunet_features0_fractalresnet_unit0_ftattention2d0_relftattention2d0_ftanimoto1__mulscalar3", 
      "attrs": {"scalar": "-3.0"}, 
      "inputs": [[135, 0, 0]]
    }, 
    {
      "op": "broadcast_add", 
      "name": "fractal_resunet_cmtsk6_fractal_resunet_features0_fractalresnet_unit0_ftattention2d0_relftattention2d0_ftanimoto1_broadcast_add1", 
      "inputs": [[149, 0, 0], [150, 0, 0]]
    }, 
    {
      "op": "_plus_scalar", 
      "name": "fractal_resunet_cmtsk6_fractal_resunet_features0_fractalresnet_unit0_ftattention2d0_relftattention2d0_ftanimoto1__plusscalar3", 
      "attrs": {"scalar": "1e-05"}, 
      "inputs": [[151, 0, 0]]
    }, 
    {
      "op": "reciprocal", 
      "name": "fractal_resunet_cmtsk6_fractal_resunet_features0_fractalresnet_unit0_ftattention2d0_relftattention2d0_ftanimoto1_reciprocal1", 
      "inputs": [[152, 0, 0]]
    }, 
    {
      "op": "elemwise_add", 
      "name": "fractal_resunet_cmtsk6_fractal_resunet_features0_fractalresnet_unit0_ftattention2d0_relftattention2d0_ftanimoto1__plus2", 
      "inputs": [[147, 0, 0], [153, 0, 0]]
    }, 
    {
      "op": "elemwise_add", 
      "name": "fractal_resunet_cmtsk6_fractal_resunet_features0_fractalresnet_unit0_ftattention2d0_relftattention2d0_ftanimoto1__plus3", 
      "inputs": [[138, 0, 0], [140, 0, 0]]
    }, 
    {
      "op": "_mul_scalar", 
      "name": "fractal_resunet_cmtsk6_fractal_resunet_features0_fractalresnet_unit0_ftattention2d0_relftattention2d0_ftanimoto1__mulscalar4", 
      "attrs": {"scalar": "4.0"}, 
      "inputs": [[155, 0, 0]]
    }, 
    {
      "op": "_mul_scalar", 
      "name": "fractal_resunet_cmtsk6_fractal_resunet_features0_fractalresnet_unit0_ftattention2d0_relftattention2d0_ftanimoto1__mulscalar5", 
      "attrs": {"scalar": "-7.0"}, 
      "inputs": [[135, 0, 0]]
    }, 
    {
      "op": "broadcast_add", 
      "name": "fractal_resunet_cmtsk6_fractal_resunet_features0_fractalresnet_unit0_ftattention2d0_relftattention2d0_ftanimoto1_broadcast_add2", 
      "inputs": [[156, 0, 0], [157, 0, 0]]
    }, 
    {
      "op": "_plus_scalar", 
      "name": "fractal_resunet_cmtsk6_fractal_resunet_features0_fractalresnet_unit0_ftattention2d0_relftattention2d0_ftanimoto1__plusscalar4", 
      "attrs": {"scalar": "1e-05"}, 
      "inputs": [[158, 0, 0]]
    }, 
    {
      "op": "reciprocal", 
      "name": "fractal_resunet_cmtsk6_fractal_resunet_features0_fractalresnet_unit0_ftattention2d0_relftattention2d0_ftanimoto1_reciprocal2", 
      "inputs": [[159, 0, 0]]
    }, 
    {
      "op": "elemwise_add", 
      "name": "fractal_resunet_cmtsk6_fractal_resunet_features0_fractalresnet_unit0_ftattention2d0_relftattention2d0_ftanimoto1__plus4", 
      "inputs": [[154, 0, 0], [160, 0, 0]]
    }, 
    {
      "op": "elemwise_add", 
      "name": "fractal_resunet_cmtsk6_fractal_resunet_features0_fractalresnet_unit0_ftattention2d0_relftattention2d0_ftanimoto1__plus5", 
      "inputs": [[138, 0, 0], [140, 0, 0]]
    }, 
    {
      "op": "_mul_scalar", 
      "name": "fractal_resunet_cmtsk6_fractal_resunet_features0_fractalresnet_unit0_ftattention2d0_relftattention2d0_ftanimoto1__mulscalar6", 
      "attrs": {"scalar": "8.0"}, 
      "inputs": [[162, 0, 0]]
    }, 
    {
      "op": "_mul_scalar", 
      "name": "fractal_resunet_cmtsk6_fractal_resunet_features0_fractalresnet_unit0_ftattention2d0_relftattention2d0_ftanimoto1__mulscalar7", 
      "attrs": {"scalar": "-15.0"}, 
      "inputs": [[135, 0, 0]]
    }, 
    {
      "op": "broadcast_add", 
      "name": "fractal_resunet_cmtsk6_fractal_resunet_features0_fractalresnet_unit0_ftattention2d0_relftattention2d0_ftanimoto1_broadcast_add3", 
      "inputs": [[163, 0, 0], [164, 0, 0]]
    }, 
    {
      "op": "_plus_scalar", 
      "name": "fractal_resunet_cmtsk6_fractal_resunet_features0_fractalresnet_unit0_ftattention2d0_relftattention2d0_ftanimoto1__plusscalar5", 
      "attrs": {"scalar": "1e-05"}, 
      "inputs": [[165, 0, 0]]
    }, 
    {
      "op": "reciprocal", 
      "name": "fractal_resunet_cmtsk6_fractal_resunet_features0_fractalresnet_unit0_ftattention2d0_relftattention2d0_ftanimoto1_reciprocal3", 
      "inputs": [[166, 0, 0]]
    }, 
    {
      "op": "elemwise_add", 
      "name": "fractal_resunet_cmtsk6_fractal_resunet_features0_fractalresnet_unit0_ftattention2d0_relftattention2d0_ftanimoto1__plus6", 
      "inputs": [[161, 0, 0], [167, 0, 0]]
    }, 
    {
      "op": "elemwise_add", 
      "name": "fractal_resunet_cmtsk6_fractal_resunet_features0_fractalresnet_unit0_ftattention2d0_relftattention2d0_ftanimoto1__plus7", 
      "inputs": [[138, 0, 0], [140, 0, 0]]
    }, 
    {
      "op": "_mul_scalar", 
      "name": "fractal_resunet_cmtsk6_fractal_resunet_features0_fractalresnet_unit0_ftattention2d0_relftattention2d0_ftanimoto1__mulscalar8", 
      "attrs": {"scalar": "16.0"}, 
      "inputs": [[169, 0, 0]]
    }, 
    {
      "op": "_mul_scalar", 
      "name": "fractal_resunet_cmtsk6_fractal_resunet_features0_fractalresnet_unit0_ftattention2d0_relftattention2d0_ftanimoto1__mulscalar9", 
      "attrs": {"scalar": "-31.0"}, 
      "inputs": [[135, 0, 0]]
    }, 
    {
      "op": "broadcast_add", 
      "name": "fractal_resunet_cmtsk6_fractal_resunet_features0_fractalresnet_unit0_ftattention2d0_relftattention2d0_ftanimoto1_broadcast_add4", 
      "inputs": [[170, 0, 0], [171, 0, 0]]
    }, 
    {
      "op": "_plus_scalar", 
      "name": "fractal_resunet_cmtsk6_fractal_resunet_features0_fractalresnet_unit0_ftattention2d0_relftattention2d0_ftanimoto1__plusscalar6", 
      "attrs": {"scalar": "1e-05"}, 
      "inputs": [[172, 0, 0]]
    }, 
    {
      "op": "reciprocal", 
      "name": "fractal_resunet_cmtsk6_fractal_resunet_features0_fractalresnet_unit0_ftattention2d0_relftattention2d0_ftanimoto1_reciprocal4", 
      "inputs": [[173, 0, 0]]
    }, 
    {
      "op": "elemwise_add", 
      "name": "fractal_resunet_cmtsk6_fractal_resunet_features0_fractalresnet_unit0_ftattention2d0_relftattention2d0_ftanimoto1__plus8", 
      "inputs": [[168, 0, 0], [174, 0, 0]]
    }, 
    {
      "op": "broadcast_mul", 
      "name": "fractal_resunet_cmtsk6_fractal_resunet_features0_fractalresnet_unit0_ftattention2d0_relftattention2d0_ftanimoto1_broadcast_mul3", 
      "inputs": [[136, 0, 0], [175, 0, 0]]
    }, 
    {
      "op": "_mul_scalar", 
      "name": "fractal_resunet_cmtsk6_fractal_resunet_features0_fractalresnet_unit0_ftattention2d0_relftattention2d0_ftanimoto1__mulscalar10", 
      "attrs": {"scalar": "0.2"}, 
      "inputs": [[176, 0, 0]]
    }, 
    {
      "op": "_rminus_scalar", 
      "name": "fractal_resunet_cmtsk6_fractal_resunet_features0_fractalresnet_unit0_ftattention2d0_relftattention2d0_ftanimoto1__rminusscalar0", 
      "attrs": {"scalar": "1.0"}, 
      "inputs": [[28, 0, 0]]
    }, 
    {
      "op": "_rminus_scalar", 
      "name": "fractal_resunet_cmtsk6_fractal_resunet_features0_fractalresnet_unit0_ftattention2d0_relftattention2d0_ftanimoto1__rminusscalar1", 
      "attrs": {"scalar": "1.0"}, 
      "inputs": [[34, 0, 0]]
    }, 
    {
      "op": "broadcast_mul", 
      "name": "fractal_resunet_cmtsk6_fractal_resunet_features0_fractalresnet_unit0_ftattention2d0_relftattention2d0_ftanimoto1_broadcast_mul4", 
      "inputs": [[178, 0, 0], [179, 0, 0]]
    }, 
    {
      "op": "sum", 
      "name": "fractal_resunet_cmtsk6_fractal_resunet_features0_fractalresnet_unit0_ftattention2d0_relftattention2d0_ftanimoto1_sum3", 
      "attrs": {
        "axis": "1", 
        "keepdims": "True"
      }, 
      "inputs": [[180, 0, 0]]
    }, 
    {
      "op": "_plus_scalar", 
      "name": "fractal_resunet_cmtsk6_fractal_resunet_features0_fractalresnet_unit0_ftattention2d0_relftattention2d0_ftanimoto1__plusscalar7", 
      "attrs": {"scalar": "1e-05"}, 
      "inputs": [[181, 0, 0]]
    }, 
    {
      "op": "broadcast_mul", 
      "name": "fractal_resunet_cmtsk6_fractal_resunet_features0_fractalresnet_unit0_ftattention2d0_relftattention2d0_ftanimoto1_broadcast_mul5", 
      "inputs": [[178, 0, 0], [178, 0, 0]]
    }, 
    {
      "op": "sum", 
      "name": "fractal_resunet_cmtsk6_fractal_resunet_features0_fractalresnet_unit0_ftattention2d0_relftattention2d0_ftanimoto1_sum4", 
      "attrs": {
        "axis": "1", 
        "keepdims": "True"
      }, 
      "inputs": [[183, 0, 0]]
    }, 
    {
      "op": "broadcast_mul", 
      "name": "fractal_resunet_cmtsk6_fractal_resunet_features0_fractalresnet_unit0_ftattention2d0_relftattention2d0_ftanimoto1_broadcast_mul6", 
      "inputs": [[179, 0, 0], [179, 0, 0]]
    }, 
    {
      "op": "sum", 
      "name": "fractal_resunet_cmtsk6_fractal_resunet_features0_fractalresnet_unit0_ftattention2d0_relftattention2d0_ftanimoto1_sum5", 
      "attrs": {
        "axis": "1", 
        "keepdims": "True"
      }, 
      "inputs": [[185, 0, 0]]
    }, 
    {
      "op": "elemwise_add", 
      "name": "fractal_resunet_cmtsk6_fractal_resunet_features0_fractalresnet_unit0_ftattention2d0_relftattention2d0_ftanimoto1__plus9", 
      "inputs": [[184, 0, 0], [186, 0, 0]]
    }, 
    {
      "op": "_mul_scalar", 
      "name": "fractal_resunet_cmtsk6_fractal_resunet_features0_fractalresnet_unit0_ftattention2d0_relftattention2d0_ftanimoto1__mulscalar11", 
      "attrs": {"scalar": "1.0"}, 
      "inputs": [[187, 0, 0]]
    }, 
    {
      "op": "_mul_scalar", 
      "name": "fractal_resunet_cmtsk6_fractal_resunet_features0_fractalresnet_unit0_ftattention2d0_relftattention2d0_ftanimoto1__mulscalar12", 
      "attrs": {"scalar": "-1.0"}, 
      "inputs": [[181, 0, 0]]
    }, 
    {
      "op": "broadcast_add", 
      "name": "fractal_resunet_cmtsk6_fractal_resunet_features0_fractalresnet_unit0_ftattention2d0_relftattention2d0_ftanimoto1_broadcast_add5", 
      "inputs": [[188, 0, 0], [189, 0, 0]]
    }, 
    {
      "op": "_plus_scalar", 
      "name": "fractal_resunet_cmtsk6_fractal_resunet_features0_fractalresnet_unit0_ftattention2d0_relftattention2d0_ftanimoto1__plusscalar8", 
      "attrs": {"scalar": "1e-05"}, 
      "inputs": [[190, 0, 0]]
    }, 
    {
      "op": "reciprocal", 
      "name": "fractal_resunet_cmtsk6_fractal_resunet_features0_fractalresnet_unit0_ftattention2d0_relftattention2d0_ftanimoto1_reciprocal5", 
      "inputs": [[191, 0, 0]]
    }, 
    {
      "op": "_plus_scalar", 
      "name": "fractal_resunet_cmtsk6_fractal_resunet_features0_fractalresnet_unit0_ftattention2d0_relftattention2d0_ftanimoto1__plusscalar9", 
      "attrs": {"scalar": "0.0"}, 
      "inputs": [[192, 0, 0]]
    }, 
    {
      "op": "elemwise_add", 
      "name": "fractal_resunet_cmtsk6_fractal_resunet_features0_fractalresnet_unit0_ftattention2d0_relftattention2d0_ftanimoto1__plus10", 
      "inputs": [[184, 0, 0], [186, 0, 0]]
    }, 
    {
      "op": "_mul_scalar", 
      "name": "fractal_resunet_cmtsk6_fractal_resunet_features0_fractalresnet_unit0_ftattention2d0_relftattention2d0_ftanimoto1__mulscalar13", 
      "attrs": {"scalar": "2.0"}, 
      "inputs": [[194, 0, 0]]
    }, 
    {
      "op": "_mul_scalar", 
      "name": "fractal_resunet_cmtsk6_fractal_resunet_features0_fractalresnet_unit0_ftattention2d0_relftattention2d0_ftanimoto1__mulscalar14", 
      "attrs": {"scalar": "-3.0"}, 
      "inputs": [[181, 0, 0]]
    }, 
    {
      "op": "broadcast_add", 
      "name": "fractal_resunet_cmtsk6_fractal_resunet_features0_fractalresnet_unit0_ftattention2d0_relftattention2d0_ftanimoto1_broadcast_add6", 
      "inputs": [[195, 0, 0], [196, 0, 0]]
    }, 
    {
      "op": "_plus_scalar", 
      "name": "fractal_resunet_cmtsk6_fractal_resunet_features0_fractalresnet_unit0_ftattention2d0_relftattention2d0_ftanimoto1__plusscalar10", 
      "attrs": {"scalar": "1e-05"}, 
      "inputs": [[197, 0, 0]]
    }, 
    {
      "op": "reciprocal", 
      "name": "fractal_resunet_cmtsk6_fractal_resunet_features0_fractalresnet_unit0_ftattention2d0_relftattention2d0_ftanimoto1_reciprocal6", 
      "inputs": [[198, 0, 0]]
    }, 
    {
      "op": "elemwise_add", 
      "name": "fractal_resunet_cmtsk6_fractal_resunet_features0_fractalresnet_unit0_ftattention2d0_relftattention2d0_ftanimoto1__plus11", 
      "inputs": [[193, 0, 0], [199, 0, 0]]
    }, 
    {
      "op": "elemwise_add", 
      "name": "fractal_resunet_cmtsk6_fractal_resunet_features0_fractalresnet_unit0_ftattention2d0_relftattention2d0_ftanimoto1__plus12", 
      "inputs": [[184, 0, 0], [186, 0, 0]]
    }, 
    {
      "op": "_mul_scalar", 
      "name": "fractal_resunet_cmtsk6_fractal_resunet_features0_fractalresnet_unit0_ftattention2d0_relftattention2d0_ftanimoto1__mulscalar15", 
      "attrs": {"scalar": "4.0"}, 
      "inputs": [[201, 0, 0]]
    }, 
    {
      "op": "_mul_scalar", 
      "name": "fractal_resunet_cmtsk6_fractal_resunet_features0_fractalresnet_unit0_ftattention2d0_relftattention2d0_ftanimoto1__mulscalar16", 
      "attrs": {"scalar": "-7.0"}, 
      "inputs": [[181, 0, 0]]
    }, 
    {
      "op": "broadcast_add", 
      "name": "fractal_resunet_cmtsk6_fractal_resunet_features0_fractalresnet_unit0_ftattention2d0_relftattention2d0_ftanimoto1_broadcast_add7", 
      "inputs": [[202, 0, 0], [203, 0, 0]]
    }, 
    {
      "op": "_plus_scalar", 
      "name": "fractal_resunet_cmtsk6_fractal_resunet_features0_fractalresnet_unit0_ftattention2d0_relftattention2d0_ftanimoto1__plusscalar11", 
      "attrs": {"scalar": "1e-05"}, 
      "inputs": [[204, 0, 0]]
    }, 
    {
      "op": "reciprocal", 
      "name": "fractal_resunet_cmtsk6_fractal_resunet_features0_fractalresnet_unit0_ftattention2d0_relftattention2d0_ftanimoto1_reciprocal7", 
      "inputs": [[205, 0, 0]]
    }, 
    {
      "op": "elemwise_add", 
      "name": "fractal_resunet_cmtsk6_fractal_resunet_features0_fractalresnet_unit0_ftattention2d0_relftattention2d0_ftanimoto1__plus13", 
      "inputs": [[200, 0, 0], [206, 0, 0]]
    }, 
    {
      "op": "elemwise_add", 
      "name": "fractal_resunet_cmtsk6_fractal_resunet_features0_fractalresnet_unit0_ftattention2d0_relftattention2d0_ftanimoto1__plus14", 
      "inputs": [[184, 0, 0], [186, 0, 0]]
    }, 
    {
      "op": "_mul_scalar", 
      "name": "fractal_resunet_cmtsk6_fractal_resunet_features0_fractalresnet_unit0_ftattention2d0_relftattention2d0_ftanimoto1__mulscalar17", 
      "attrs": {"scalar": "8.0"}, 
      "inputs": [[208, 0, 0]]
    }, 
    {
      "op": "_mul_scalar", 
      "name": "fractal_resunet_cmtsk6_fractal_resunet_features0_fractalresnet_unit0_ftattention2d0_relftattention2d0_ftanimoto1__mulscalar18", 
      "attrs": {"scalar": "-15.0"}, 
      "inputs": [[181, 0, 0]]
    }, 
    {
      "op": "broadcast_add", 
      "name": "fractal_resunet_cmtsk6_fractal_resunet_features0_fractalresnet_unit0_ftattention2d0_relftattention2d0_ftanimoto1_broadcast_add8", 
      "inputs": [[209, 0, 0], [210, 0, 0]]
    }, 
    {
      "op": "_plus_scalar", 
      "name": "fractal_resunet_cmtsk6_fractal_resunet_features0_fractalresnet_unit0_ftattention2d0_relftattention2d0_ftanimoto1__plusscalar12", 
      "attrs": {"scalar": "1e-05"}, 
      "inputs": [[211, 0, 0]]
    }, 
    {
      "op": "reciprocal", 
      "name": "fractal_resunet_cmtsk6_fractal_resunet_features0_fractalresnet_unit0_ftattention2d0_relftattention2d0_ftanimoto1_reciprocal8", 
      "inputs": [[212, 0, 0]]
    }, 
    {
      "op": "elemwise_add", 
      "name": "fractal_resunet_cmtsk6_fractal_resunet_features0_fractalresnet_unit0_ftattention2d0_relftattention2d0_ftanimoto1__plus15", 
      "inputs": [[207, 0, 0], [213, 0, 0]]
    }, 
    {
      "op": "elemwise_add", 
      "name": "fractal_resunet_cmtsk6_fractal_resunet_features0_fractalresnet_unit0_ftattention2d0_relftattention2d0_ftanimoto1__plus16", 
      "inputs": [[184, 0, 0], [186, 0, 0]]
    }, 
    {
      "op": "_mul_scalar", 
      "name": "fractal_resunet_cmtsk6_fractal_resunet_features0_fractalresnet_unit0_ftattention2d0_relftattention2d0_ftanimoto1__mulscalar19", 
      "attrs": {"scalar": "16.0"}, 
      "inputs": [[215, 0, 0]]
    }, 
    {
      "op": "_mul_scalar", 
      "name": "fractal_resunet_cmtsk6_fractal_resunet_features0_fractalresnet_unit0_ftattention2d0_relftattention2d0_ftanimoto1__mulscalar20", 
      "attrs": {"scalar": "-31.0"}, 
      "inputs": [[181, 0, 0]]
    }, 
    {
      "op": "broadcast_add", 
      "name": "fractal_resunet_cmtsk6_fractal_resunet_features0_fractalresnet_unit0_ftattention2d0_relftattention2d0_ftanimoto1_broadcast_add9", 
      "inputs": [[216, 0, 0], [217, 0, 0]]
    }, 
    {
      "op": "_plus_scalar", 
      "name": "fractal_resunet_cmtsk6_fractal_resunet_features0_fractalresnet_unit0_ftattention2d0_relftattention2d0_ftanimoto1__plusscalar13", 
      "attrs": {"scalar": "1e-05"}, 
      "inputs": [[218, 0, 0]]
    }, 
    {
      "op": "reciprocal", 
      "name": "fractal_resunet_cmtsk6_fractal_resunet_features0_fractalresnet_unit0_ftattention2d0_relftattention2d0_ftanimoto1_reciprocal9", 
      "inputs": [[219, 0, 0]]
    }, 
    {
      "op": "elemwise_add", 
      "name": "fractal_resunet_cmtsk6_fractal_resunet_features0_fractalresnet_unit0_ftattention2d0_relftattention2d0_ftanimoto1__plus17", 
      "inputs": [[214, 0, 0], [220, 0, 0]]
    }, 
    {
      "op": "broadcast_mul", 
      "name": "fractal_resunet_cmtsk6_fractal_resunet_features0_fractalresnet_unit0_ftattention2d0_relftattention2d0_ftanimoto1_broadcast_mul7", 
      "inputs": [[182, 0, 0], [221, 0, 0]]
    }, 
    {
      "op": "_mul_scalar", 
      "name": "fractal_resunet_cmtsk6_fractal_resunet_features0_fractalresnet_unit0_ftattention2d0_relftattention2d0_ftanimoto1__mulscalar21", 
      "attrs": {"scalar": "0.2"}, 
      "inputs": [[222, 0, 0]]
    }, 
    {
      "op": "elemwise_add", 
      "name": "fractal_resunet_cmtsk6_fractal_resunet_features0_fractalresnet_unit0_ftattention2d0_relftattention2d0_ftanimoto1__plus18", 
      "inputs": [[177, 0, 0], [223, 0, 0]]
    }, 
    {
      "op": "_mul_scalar", 
      "name": "fractal_resunet_cmtsk6_fractal_resunet_features0_fractalresnet_unit0_ftattention2d0_relftattention2d0_ftanimoto1__mulscalar22", 
      "attrs": {"scalar": "0.5"}, 
      "inputs": [[224, 0, 0]]
    }, 
    {
      "op": "broadcast_mul", 
      "name": "fractal_resunet_cmtsk6_fractal_resunet_features0_fractalresnet_unit0_ftattention2d0_relftattention2d0_broadcast_mul0", 
      "inputs": [[225, 0, 0], [132, 0, 0]]
    }, 
    {
      "op": "broadcast_add", 
      "name": "fractal_resunet_cmtsk6_fractal_resunet_features0_fractalresnet_unit0_ftattention2d0_relftattention2d0_broadcast_add0", 
      "inputs": [[133, 0, 0], [226, 0, 0]]
    }, 
    {
      "op": "_mul_scalar", 
      "name": "fractal_resunet_cmtsk6_fractal_resunet_features0_fractalresnet_unit0_ftattention2d0_relftattention2d0__mulscalar0", 
      "attrs": {"scalar": "0.5"}, 
      "inputs": [[227, 0, 0]]
    }, 
    {
      "op": "null", 
      "name": "fractal_resunet_cmtsk6_fractal_resunet_features0_fractalresnet_unit0_ftattention2d0_relftattention2d0_groupnorm0_gamma", 
      "attrs": {
        "__dtype__": "0", 
        "__init__": "ones", 
        "__lr_mult__": "1.0", 
        "__shape__": "(4,)", 
        "__storage_type__": "0", 
        "__wd_mult__": "1.0"
      }, 
      "inputs": []
    }, 
    {
      "op": "null", 
      "name": "fractal_resunet_cmtsk6_fractal_resunet_features0_fractalresnet_unit0_ftattention2d0_relftattention2d0_groupnorm0_beta", 
      "attrs": {
        "__dtype__": "0", 
        "__init__": "zeros", 
        "__lr_mult__": "1.0", 
        "__shape__": "(4,)", 
        "__storage_type__": "0", 
        "__wd_mult__": "1.0"
      }, 
      "inputs": []
    }, 
    {
      "op": "GroupNorm", 
      "name": "fractal_resunet_cmtsk6_fractal_resunet_features0_fractalresnet_unit0_ftattention2d0_relftattention2d0_groupnorm0_groupnorm0", 
      "attrs": {
        "eps": "1e-05", 
        "num_groups": "4"
      }, 
      "inputs": [[228, 0, 0], [229, 0, 0], [230, 0, 0]]
    }, 
    {
      "op": "broadcast_mul", 
      "name": "fractal_resunet_cmtsk6_fractal_resunet_features0_fractalresnet_unit0_broadcast_mul0", 
      "inputs": [[22, 0, 0], [231, 0, 0]]
    }, 
    {
      "op": "elemwise_add", 
      "name": "fractal_resunet_cmtsk6_fractal_resunet_features0_fractalresnet_unit0__plus1", 
      "inputs": [[21, 0, 0], [232, 0, 0]]
    }, 
    {
      "op": "broadcast_mul", 
      "name": "fractal_resunet_cmtsk6_fractal_resunet_features0_fractalresnet_unit0_broadcast_mul1", 
      "inputs": [[20, 0, 0], [233, 0, 0]]
    }, 
    {
      "op": "_copy", 
      "name": "fractal_resunet_cmtsk6_fractal_resunet_features0_identity1", 
      "inputs": [[234, 0, 0]]
    }, 
    {
      "op": "null", 
      "name": "fractal_resunet_cmtsk6_fractal_resunet_features0_downsample0_conv2dnormed0_conv0_weight", 
      "attrs": {
        "__dtype__": "0", 
        "__lr_mult__": "1.0", 
        "__shape__": "(64, 0, 3, 3)", 
        "__storage_type__": "0", 
        "__wd_mult__": "1.0"
      }, 
      "inputs": []
    }, 
    {
      "op": "Convolution", 
      "name": "fractal_resunet_cmtsk6_fractal_resunet_features0_downsample0_conv2dnormed0_conv0_fwd", 
      "attrs": {
        "dilate": "(1, 1)", 
        "kernel": "(3, 3)", 
        "layout": "NCHW", 
        "no_bias": "True", 
        "num_filter": "64", 
        "num_group": "1", 
        "pad": "(1, 1)", 
        "stride": "(2, 2)"
      }, 
      "inputs": [[235, 0, 0], [236, 0, 0]]
    }, 
    {
      "op": "null", 
      "name": "fractal_resunet_cmtsk6_fractal_resunet_features0_downsample0_conv2dnormed0_groupnorm0_gamma", 
      "attrs": {
        "__dtype__": "0", 
        "__init__": "ones", 
        "__lr_mult__": "1.0", 
        "__shape__": "(4,)", 
        "__storage_type__": "0", 
        "__wd_mult__": "1.0"
      }, 
      "inputs": []
    }, 
    {
      "op": "null", 
      "name": "fractal_resunet_cmtsk6_fractal_resunet_features0_downsample0_conv2dnormed0_groupnorm0_beta", 
      "attrs": {
        "__dtype__": "0", 
        "__init__": "zeros", 
        "__lr_mult__": "1.0", 
        "__shape__": "(4,)", 
        "__storage_type__": "0", 
        "__wd_mult__": "1.0"
      }, 
      "inputs": []
    }, 
    {
      "op": "GroupNorm", 
      "name": "fractal_resunet_cmtsk6_fractal_resunet_features0_downsample0_conv2dnormed0_groupnorm0_groupnorm0", 
      "attrs": {
        "eps": "1e-05", 
        "num_groups": "4"
      }, 
      "inputs": [[237, 0, 0], [238, 0, 0], [239, 0, 0]]
    }, 
    {
      "op": "null", 
      "name": "fractal_resunet_cmtsk6_fractal_resunet_features0_fractalresnet_unit1_resnet_v2_block0_groupnorm0_gamma", 
      "attrs": {
        "__dtype__": "0", 
        "__init__": "ones", 
        "__lr_mult__": "1.0", 
        "__shape__": "(4,)", 
        "__storage_type__": "0", 
        "__wd_mult__": "1.0"
      }, 
      "inputs": []
    }, 
    {
      "op": "null", 
      "name": "fractal_resunet_cmtsk6_fractal_resunet_features0_fractalresnet_unit1_resnet_v2_block0_groupnorm0_beta", 
      "attrs": {
        "__dtype__": "0", 
        "__init__": "zeros", 
        "__lr_mult__": "1.0", 
        "__shape__": "(4,)", 
        "__storage_type__": "0", 
        "__wd_mult__": "1.0"
      }, 
      "inputs": []
    }, 
    {
      "op": "GroupNorm", 
      "name": "fractal_resunet_cmtsk6_fractal_resunet_features0_fractalresnet_unit1_resnet_v2_block0_groupnorm0_groupnorm0", 
      "attrs": {
        "eps": "1e-05", 
        "num_groups": "4"
      }, 
      "inputs": [[240, 0, 0], [241, 0, 0], [242, 0, 0]]
    }, 
    {
      "op": "relu", 
      "name": "fractal_resunet_cmtsk6_fractal_resunet_features0_fractalresnet_unit1_resnet_v2_block0_relu0", 
      "inputs": [[243, 0, 0]]
    }, 
    {
      "op": "null", 
      "name": "fractal_resunet_cmtsk6_fractal_resunet_features0_fractalresnet_unit1_resnet_v2_block0_conv0_weight", 
      "attrs": {
        "__dtype__": "0", 
        "__lr_mult__": "1.0", 
        "__shape__": "(64, 0, 3, 3)", 
        "__storage_type__": "0", 
        "__wd_mult__": "1.0"
      }, 
      "inputs": []
    }, 
    {
      "op": "Convolution", 
      "name": "fractal_resunet_cmtsk6_fractal_resunet_features0_fractalresnet_unit1_resnet_v2_block0_conv0_fwd", 
      "attrs": {
        "dilate": "(1, 1)", 
        "kernel": "(3, 3)", 
        "layout": "NCHW", 
        "no_bias": "True", 
        "num_filter": "64", 
        "num_group": "8", 
        "pad": "(1, 1)", 
        "stride": "(1, 1)"
      }, 
      "inputs": [[244, 0, 0], [245, 0, 0]]
    }, 
    {
      "op": "null", 
      "name": "fractal_resunet_cmtsk6_fractal_resunet_features0_fractalresnet_unit1_resnet_v2_block0_groupnorm1_gamma", 
      "attrs": {
        "__dtype__": "0", 
        "__init__": "ones", 
        "__lr_mult__": "1.0", 
        "__shape__": "(4,)", 
        "__storage_type__": "0", 
        "__wd_mult__": "1.0"
      }, 
      "inputs": []
    }, 
    {
      "op": "null", 
      "name": "fractal_resunet_cmtsk6_fractal_resunet_features0_fractalresnet_unit1_resnet_v2_block0_groupnorm1_beta", 
      "attrs": {
        "__dtype__": "0", 
        "__init__": "zeros", 
        "__lr_mult__": "1.0", 
        "__shape__": "(4,)", 
        "__storage_type__": "0", 
        "__wd_mult__": "1.0"
      }, 
      "inputs": []
    }, 
    {
      "op": "GroupNorm", 
      "name": "fractal_resunet_cmtsk6_fractal_resunet_features0_fractalresnet_unit1_resnet_v2_block0_groupnorm1_groupnorm0", 
      "attrs": {
        "eps": "1e-05", 
        "num_groups": "4"
      }, 
      "inputs": [[246, 0, 0], [247, 0, 0], [248, 0, 0]]
    }, 
    {
      "op": "relu", 
      "name": "fractal_resunet_cmtsk6_fractal_resunet_features0_fractalresnet_unit1_resnet_v2_block0_relu1", 
      "inputs": [[249, 0, 0]]
    }, 
    {
      "op": "null", 
      "name": "fractal_resunet_cmtsk6_fractal_resunet_features0_fractalresnet_unit1_resnet_v2_block0_conv1_weight", 
      "attrs": {
        "__dtype__": "0", 
        "__lr_mult__": "1.0", 
        "__shape__": "(64, 0, 3, 3)", 
        "__storage_type__": "0", 
        "__wd_mult__": "1.0"
      }, 
      "inputs": []
    }, 
    {
      "op": "null", 
      "name": "fractal_resunet_cmtsk6_fractal_resunet_features0_fractalresnet_unit1_resnet_v2_block0_conv1_bias", 
      "attrs": {
        "__dtype__": "0", 
        "__init__": "zeros", 
        "__lr_mult__": "1.0", 
        "__shape__": "(64,)", 
        "__storage_type__": "0", 
        "__wd_mult__": "1.0"
      }, 
      "inputs": []
    }, 
    {
      "op": "Convolution", 
      "name": "fractal_resunet_cmtsk6_fractal_resunet_features0_fractalresnet_unit1_resnet_v2_block0_conv1_fwd", 
      "attrs": {
        "dilate": "(1, 1)", 
        "kernel": "(3, 3)", 
        "layout": "NCHW", 
        "no_bias": "False", 
        "num_filter": "64", 
        "num_group": "8", 
        "pad": "(1, 1)", 
        "stride": "(1, 1)"
      }, 
      "inputs": [[250, 0, 0], [251, 0, 0], [252, 0, 0]]
    }, 
    {
      "op": "elemwise_add", 
      "name": "fractal_resunet_cmtsk6_fractal_resunet_features0_fractalresnet_unit1__plus0", 
      "inputs": [[240, 0, 0], [253, 0, 0]]
    }, 
    {
      "op": "ones_like", 
      "name": "fractal_resunet_cmtsk6_fractal_resunet_features0_fractalresnet_unit1_ones_like0", 
      "inputs": [[253, 0, 0]]
    }, 
    {
      "op": "null", 
      "name": "fractal_resunet_cmtsk6_fractal_resunet_features0_fractalresnet_unit1_gamma", 
      "attrs": {
        "__dtype__": "0", 
        "__init__": "[\"zero\", {}]", 
        "__lr_mult__": "1.0", 
        "__shape__": "(1,)", 
        "__storage_type__": "0", 
        "__wd_mult__": "1.0"
      }, 
      "inputs": []
    }, 
    {
      "op": "null", 
      "name": "fractal_resunet_cmtsk6_fractal_resunet_features0_fractalresnet_unit1_ftattention2d0_relftattention2d0_conv2dnormed0_conv0_weight", 
      "attrs": {
        "__dtype__": "0", 
        "__lr_mult__": "1.0", 
        "__shape__": "(64, 0, 3, 3)", 
        "__storage_type__": "0", 
        "__wd_mult__": "1.0"
      }, 
      "inputs": []
    }, 
    {
      "op": "Convolution", 
      "name": "fractal_resunet_cmtsk6_fractal_resunet_features0_fractalresnet_unit1_ftattention2d0_relftattention2d0_conv2dnormed0_conv0_fwd", 
      "attrs": {
        "dilate": "(1, 1)", 
        "kernel": "(3, 3)", 
        "layout": "NCHW", 
        "no_bias": "True", 
        "num_filter": "64", 
        "num_group": "1", 
        "pad": "(1, 1)", 
        "stride": "(1, 1)"
      }, 
      "inputs": [[240, 0, 0], [257, 0, 0]]
    }, 
    {
      "op": "null", 
      "name": "fractal_resunet_cmtsk6_fractal_resunet_features0_fractalresnet_unit1_ftattention2d0_relftattention2d0_conv2dnormed0_groupnorm0_gamma", 
      "attrs": {
        "__dtype__": "0", 
        "__init__": "ones", 
        "__lr_mult__": "1.0", 
        "__shape__": "(4,)", 
        "__storage_type__": "0", 
        "__wd_mult__": "1.0"
      }, 
      "inputs": []
    }, 
    {
      "op": "null", 
      "name": "fractal_resunet_cmtsk6_fractal_resunet_features0_fractalresnet_unit1_ftattention2d0_relftattention2d0_conv2dnormed0_groupnorm0_beta", 
      "attrs": {
        "__dtype__": "0", 
        "__init__": "zeros", 
        "__lr_mult__": "1.0", 
        "__shape__": "(4,)", 
        "__storage_type__": "0", 
        "__wd_mult__": "1.0"
      }, 
      "inputs": []
    }, 
    {
      "op": "GroupNorm", 
      "name": "fractal_resunet_cmtsk6_fractal_resunet_features0_fractalresnet_unit1_ftattention2d0_relftattention2d0_conv2dnormed0_groupnorm0_groupnorm0", 
      "attrs": {
        "eps": "1e-05", 
        "num_groups": "4"
      }, 
      "inputs": [[258, 0, 0], [259, 0, 0], [260, 0, 0]]
    }, 
    {
      "op": "sigmoid", 
      "name": "fractal_resunet_cmtsk6_fractal_resunet_features0_fractalresnet_unit1_ftattention2d0_relftattention2d0_sigmoid0", 
      "inputs": [[261, 0, 0]]
    }, 
    {
      "op": "null", 
      "name": "fractal_resunet_cmtsk6_fractal_resunet_features0_fractalresnet_unit1_ftattention2d0_relftattention2d0_conv2dnormed1_conv0_weight", 
      "attrs": {
        "__dtype__": "0", 
        "__lr_mult__": "1.0", 
        "__shape__": "(64, 0, 3, 3)", 
        "__storage_type__": "0", 
        "__wd_mult__": "1.0"
      }, 
      "inputs": []
    }, 
    {
      "op": "Convolution", 
      "name": "fractal_resunet_cmtsk6_fractal_resunet_features0_fractalresnet_unit1_ftattention2d0_relftattention2d0_conv2dnormed1_conv0_fwd", 
      "attrs": {
        "dilate": "(1, 1)", 
        "kernel": "(3, 3)", 
        "layout": "NCHW", 
        "no_bias": "True", 
        "num_filter": "64", 
        "num_group": "1", 
        "pad": "(1, 1)", 
        "stride": "(1, 1)"
      }, 
      "inputs": [[240, 0, 0], [263, 0, 0]]
    }, 
    {
      "op": "null", 
      "name": "fractal_resunet_cmtsk6_fractal_resunet_features0_fractalresnet_unit1_ftattention2d0_relftattention2d0_conv2dnormed1_groupnorm0_gamma", 
      "attrs": {
        "__dtype__": "0", 
        "__init__": "ones", 
        "__lr_mult__": "1.0", 
        "__shape__": "(4,)", 
        "__storage_type__": "0", 
        "__wd_mult__": "1.0"
      }, 
      "inputs": []
    }, 
    {
      "op": "null", 
      "name": "fractal_resunet_cmtsk6_fractal_resunet_features0_fractalresnet_unit1_ftattention2d0_relftattention2d0_conv2dnormed1_groupnorm0_beta", 
      "attrs": {
        "__dtype__": "0", 
        "__init__": "zeros", 
        "__lr_mult__": "1.0", 
        "__shape__": "(4,)", 
        "__storage_type__": "0", 
        "__wd_mult__": "1.0"
      }, 
      "inputs": []
    }, 
    {
      "op": "GroupNorm", 
      "name": "fractal_resunet_cmtsk6_fractal_resunet_features0_fractalresnet_unit1_ftattention2d0_relftattention2d0_conv2dnormed1_groupnorm0_groupnorm0", 
      "attrs": {
        "eps": "1e-05", 
        "num_groups": "4"
      }, 
      "inputs": [[264, 0, 0], [265, 0, 0], [266, 0, 0]]
    }, 
    {
      "op": "sigmoid", 
      "name": "fractal_resunet_cmtsk6_fractal_resunet_features0_fractalresnet_unit1_ftattention2d0_relftattention2d0_sigmoid1", 
      "inputs": [[267, 0, 0]]
    }, 
    {
      "op": "broadcast_mul", 
      "name": "fractal_resunet_cmtsk6_fractal_resunet_features0_fractalresnet_unit1_ftattention2d0_relftattention2d0_ftanimoto0_broadcast_mul0", 
      "inputs": [[262, 0, 0], [268, 0, 0]]
    }, 
    {
      "op": "sum", 
      "name": "fractal_resunet_cmtsk6_fractal_resunet_features0_fractalresnet_unit1_ftattention2d0_relftattention2d0_ftanimoto0_sum0", 
      "attrs": {
        "axis": "[2, 3]", 
        "keepdims": "True"
      }, 
      "inputs": [[269, 0, 0]]
    }, 
    {
      "op": "_plus_scalar", 
      "name": "fractal_resunet_cmtsk6_fractal_resunet_features0_fractalresnet_unit1_ftattention2d0_relftattention2d0_ftanimoto0__plusscalar0", 
      "attrs": {"scalar": "1e-05"}, 
      "inputs": [[270, 0, 0]]
    }, 
    {
      "op": "broadcast_mul", 
      "name": "fractal_resunet_cmtsk6_fractal_resunet_features0_fractalresnet_unit1_ftattention2d0_relftattention2d0_ftanimoto0_broadcast_mul1", 
      "inputs": [[262, 0, 0], [262, 0, 0]]
    }, 
    {
      "op": "sum", 
      "name": "fractal_resunet_cmtsk6_fractal_resunet_features0_fractalresnet_unit1_ftattention2d0_relftattention2d0_ftanimoto0_sum1", 
      "attrs": {
        "axis": "[2, 3]", 
        "keepdims": "True"
      }, 
      "inputs": [[272, 0, 0]]
    }, 
    {
      "op": "broadcast_mul", 
      "name": "fractal_resunet_cmtsk6_fractal_resunet_features0_fractalresnet_unit1_ftattention2d0_relftattention2d0_ftanimoto0_broadcast_mul2", 
      "inputs": [[268, 0, 0], [268, 0, 0]]
    }, 
    {
      "op": "sum", 
      "name": "fractal_resunet_cmtsk6_fractal_resunet_features0_fractalresnet_unit1_ftattention2d0_relftattention2d0_ftanimoto0_sum2", 
      "attrs": {
        "axis": "[2, 3]", 
        "keepdims": "True"
      }, 
      "inputs": [[274, 0, 0]]
    }, 
    {
      "op": "elemwise_add", 
      "name": "fractal_resunet_cmtsk6_fractal_resunet_features0_fractalresnet_unit1_ftattention2d0_relftattention2d0_ftanimoto0__plus0", 
      "inputs": [[273, 0, 0], [275, 0, 0]]
    }, 
    {
      "op": "_mul_scalar", 
      "name": "fractal_resunet_cmtsk6_fractal_resunet_features0_fractalresnet_unit1_ftattention2d0_relftattention2d0_ftanimoto0__mulscalar0", 
      "attrs": {"scalar": "1.0"}, 
      "inputs": [[276, 0, 0]]
    }, 
    {
      "op": "_mul_scalar", 
      "name": "fractal_resunet_cmtsk6_fractal_resunet_features0_fractalresnet_unit1_ftattention2d0_relftattention2d0_ftanimoto0__mulscalar1", 
      "attrs": {"scalar": "-1.0"}, 
      "inputs": [[270, 0, 0]]
    }, 
    {
      "op": "broadcast_add", 
      "name": "fractal_resunet_cmtsk6_fractal_resunet_features0_fractalresnet_unit1_ftattention2d0_relftattention2d0_ftanimoto0_broadcast_add0", 
      "inputs": [[277, 0, 0], [278, 0, 0]]
    }, 
    {
      "op": "_plus_scalar", 
      "name": "fractal_resunet_cmtsk6_fractal_resunet_features0_fractalresnet_unit1_ftattention2d0_relftattention2d0_ftanimoto0__plusscalar1", 
      "attrs": {"scalar": "1e-05"}, 
      "inputs": [[279, 0, 0]]
    }, 
    {
      "op": "reciprocal", 
      "name": "fractal_resunet_cmtsk6_fractal_resunet_features0_fractalresnet_unit1_ftattention2d0_relftattention2d0_ftanimoto0_reciprocal0", 
      "inputs": [[280, 0, 0]]
    }, 
    {
      "op": "_plus_scalar", 
      "name": "fractal_resunet_cmtsk6_fractal_resunet_features0_fractalresnet_unit1_ftattention2d0_relftattention2d0_ftanimoto0__plusscalar2", 
      "attrs": {"scalar": "0.0"}, 
      "inputs": [[281, 0, 0]]
    }, 
    {
      "op": "elemwise_add", 
      "name": "fractal_resunet_cmtsk6_fractal_resunet_features0_fractalresnet_unit1_ftattention2d0_relftattention2d0_ftanimoto0__plus1", 
      "inputs": [[273, 0, 0], [275, 0, 0]]
    }, 
    {
      "op": "_mul_scalar", 
      "name": "fractal_resunet_cmtsk6_fractal_resunet_features0_fractalresnet_unit1_ftattention2d0_relftattention2d0_ftanimoto0__mulscalar2", 
      "attrs": {"scalar": "2.0"}, 
      "inputs": [[283, 0, 0]]
    }, 
    {
      "op": "_mul_scalar", 
      "name": "fractal_resunet_cmtsk6_fractal_resunet_features0_fractalresnet_unit1_ftattention2d0_relftattention2d0_ftanimoto0__mulscalar3", 
      "attrs": {"scalar": "-3.0"}, 
      "inputs": [[270, 0, 0]]
    }, 
    {
      "op": "broadcast_add", 
      "name": "fractal_resunet_cmtsk6_fractal_resunet_features0_fractalresnet_unit1_ftattention2d0_relftattention2d0_ftanimoto0_broadcast_add1", 
      "inputs": [[284, 0, 0], [285, 0, 0]]
    }, 
    {
      "op": "_plus_scalar", 
      "name": "fractal_resunet_cmtsk6_fractal_resunet_features0_fractalresnet_unit1_ftattention2d0_relftattention2d0_ftanimoto0__plusscalar3", 
      "attrs": {"scalar": "1e-05"}, 
      "inputs": [[286, 0, 0]]
    }, 
    {
      "op": "reciprocal", 
      "name": "fractal_resunet_cmtsk6_fractal_resunet_features0_fractalresnet_unit1_ftattention2d0_relftattention2d0_ftanimoto0_reciprocal1", 
      "inputs": [[287, 0, 0]]
    }, 
    {
      "op": "elemwise_add", 
      "name": "fractal_resunet_cmtsk6_fractal_resunet_features0_fractalresnet_unit1_ftattention2d0_relftattention2d0_ftanimoto0__plus2", 
      "inputs": [[282, 0, 0], [288, 0, 0]]
    }, 
    {
      "op": "elemwise_add", 
      "name": "fractal_resunet_cmtsk6_fractal_resunet_features0_fractalresnet_unit1_ftattention2d0_relftattention2d0_ftanimoto0__plus3", 
      "inputs": [[273, 0, 0], [275, 0, 0]]
    }, 
    {
      "op": "_mul_scalar", 
      "name": "fractal_resunet_cmtsk6_fractal_resunet_features0_fractalresnet_unit1_ftattention2d0_relftattention2d0_ftanimoto0__mulscalar4", 
      "attrs": {"scalar": "4.0"}, 
      "inputs": [[290, 0, 0]]
    }, 
    {
      "op": "_mul_scalar", 
      "name": "fractal_resunet_cmtsk6_fractal_resunet_features0_fractalresnet_unit1_ftattention2d0_relftattention2d0_ftanimoto0__mulscalar5", 
      "attrs": {"scalar": "-7.0"}, 
      "inputs": [[270, 0, 0]]
    }, 
    {
      "op": "broadcast_add", 
      "name": "fractal_resunet_cmtsk6_fractal_resunet_features0_fractalresnet_unit1_ftattention2d0_relftattention2d0_ftanimoto0_broadcast_add2", 
      "inputs": [[291, 0, 0], [292, 0, 0]]
    }, 
    {
      "op": "_plus_scalar", 
      "name": "fractal_resunet_cmtsk6_fractal_resunet_features0_fractalresnet_unit1_ftattention2d0_relftattention2d0_ftanimoto0__plusscalar4", 
      "attrs": {"scalar": "1e-05"}, 
      "inputs": [[293, 0, 0]]
    }, 
    {
      "op": "reciprocal", 
      "name": "fractal_resunet_cmtsk6_fractal_resunet_features0_fractalresnet_unit1_ftattention2d0_relftattention2d0_ftanimoto0_reciprocal2", 
      "inputs": [[294, 0, 0]]
    }, 
    {
      "op": "elemwise_add", 
      "name": "fractal_resunet_cmtsk6_fractal_resunet_features0_fractalresnet_unit1_ftattention2d0_relftattention2d0_ftanimoto0__plus4", 
      "inputs": [[289, 0, 0], [295, 0, 0]]
    }, 
    {
      "op": "elemwise_add", 
      "name": "fractal_resunet_cmtsk6_fractal_resunet_features0_fractalresnet_unit1_ftattention2d0_relftattention2d0_ftanimoto0__plus5", 
      "inputs": [[273, 0, 0], [275, 0, 0]]
    }, 
    {
      "op": "_mul_scalar", 
      "name": "fractal_resunet_cmtsk6_fractal_resunet_features0_fractalresnet_unit1_ftattention2d0_relftattention2d0_ftanimoto0__mulscalar6", 
      "attrs": {"scalar": "8.0"}, 
      "inputs": [[297, 0, 0]]
    }, 
    {
      "op": "_mul_scalar", 
      "name": "fractal_resunet_cmtsk6_fractal_resunet_features0_fractalresnet_unit1_ftattention2d0_relftattention2d0_ftanimoto0__mulscalar7", 
      "attrs": {"scalar": "-15.0"}, 
      "inputs": [[270, 0, 0]]
    }, 
    {
      "op": "broadcast_add", 
      "name": "fractal_resunet_cmtsk6_fractal_resunet_features0_fractalresnet_unit1_ftattention2d0_relftattention2d0_ftanimoto0_broadcast_add3", 
      "inputs": [[298, 0, 0], [299, 0, 0]]
    }, 
    {
      "op": "_plus_scalar", 
      "name": "fractal_resunet_cmtsk6_fractal_resunet_features0_fractalresnet_unit1_ftattention2d0_relftattention2d0_ftanimoto0__plusscalar5", 
      "attrs": {"scalar": "1e-05"}, 
      "inputs": [[300, 0, 0]]
    }, 
    {
      "op": "reciprocal", 
      "name": "fractal_resunet_cmtsk6_fractal_resunet_features0_fractalresnet_unit1_ftattention2d0_relftattention2d0_ftanimoto0_reciprocal3", 
      "inputs": [[301, 0, 0]]
    }, 
    {
      "op": "elemwise_add", 
      "name": "fractal_resunet_cmtsk6_fractal_resunet_features0_fractalresnet_unit1_ftattention2d0_relftattention2d0_ftanimoto0__plus6", 
      "inputs": [[296, 0, 0], [302, 0, 0]]
    }, 
    {
      "op": "elemwise_add", 
      "name": "fractal_resunet_cmtsk6_fractal_resunet_features0_fractalresnet_unit1_ftattention2d0_relftattention2d0_ftanimoto0__plus7", 
      "inputs": [[273, 0, 0], [275, 0, 0]]
    }, 
    {
      "op": "_mul_scalar", 
      "name": "fractal_resunet_cmtsk6_fractal_resunet_features0_fractalresnet_unit1_ftattention2d0_relftattention2d0_ftanimoto0__mulscalar8", 
      "attrs": {"scalar": "16.0"}, 
      "inputs": [[304, 0, 0]]
    }, 
    {
      "op": "_mul_scalar", 
      "name": "fractal_resunet_cmtsk6_fractal_resunet_features0_fractalresnet_unit1_ftattention2d0_relftattention2d0_ftanimoto0__mulscalar9", 
      "attrs": {"scalar": "-31.0"}, 
      "inputs": [[270, 0, 0]]
    }, 
    {
      "op": "broadcast_add", 
      "name": "fractal_resunet_cmtsk6_fractal_resunet_features0_fractalresnet_unit1_ftattention2d0_relftattention2d0_ftanimoto0_broadcast_add4", 
      "inputs": [[305, 0, 0], [306, 0, 0]]
    }, 
    {
      "op": "_plus_scalar", 
      "name": "fractal_resunet_cmtsk6_fractal_resunet_features0_fractalresnet_unit1_ftattention2d0_relftattention2d0_ftanimoto0__plusscalar6", 
      "attrs": {"scalar": "1e-05"}, 
      "inputs": [[307, 0, 0]]
    }, 
    {
      "op": "reciprocal", 
      "name": "fractal_resunet_cmtsk6_fractal_resunet_features0_fractalresnet_unit1_ftattention2d0_relftattention2d0_ftanimoto0_reciprocal4", 
      "inputs": [[308, 0, 0]]
    }, 
    {
      "op": "elemwise_add", 
      "name": "fractal_resunet_cmtsk6_fractal_resunet_features0_fractalresnet_unit1_ftattention2d0_relftattention2d0_ftanimoto0__plus8", 
      "inputs": [[303, 0, 0], [309, 0, 0]]
    }, 
    {
      "op": "broadcast_mul", 
      "name": "fractal_resunet_cmtsk6_fractal_resunet_features0_fractalresnet_unit1_ftattention2d0_relftattention2d0_ftanimoto0_broadcast_mul3", 
      "inputs": [[271, 0, 0], [310, 0, 0]]
    }, 
    {
      "op": "_mul_scalar", 
      "name": "fractal_resunet_cmtsk6_fractal_resunet_features0_fractalresnet_unit1_ftattention2d0_relftattention2d0_ftanimoto0__mulscalar10", 
      "attrs": {"scalar": "0.2"}, 
      "inputs": [[311, 0, 0]]
    }, 
    {
      "op": "_rminus_scalar", 
      "name": "fractal_resunet_cmtsk6_fractal_resunet_features0_fractalresnet_unit1_ftattention2d0_relftattention2d0_ftanimoto0__rminusscalar0", 
      "attrs": {"scalar": "1.0"}, 
      "inputs": [[262, 0, 0]]
    }, 
    {
      "op": "_rminus_scalar", 
      "name": "fractal_resunet_cmtsk6_fractal_resunet_features0_fractalresnet_unit1_ftattention2d0_relftattention2d0_ftanimoto0__rminusscalar1", 
      "attrs": {"scalar": "1.0"}, 
      "inputs": [[268, 0, 0]]
    }, 
    {
      "op": "broadcast_mul", 
      "name": "fractal_resunet_cmtsk6_fractal_resunet_features0_fractalresnet_unit1_ftattention2d0_relftattention2d0_ftanimoto0_broadcast_mul4", 
      "inputs": [[313, 0, 0], [314, 0, 0]]
    }, 
    {
      "op": "sum", 
      "name": "fractal_resunet_cmtsk6_fractal_resunet_features0_fractalresnet_unit1_ftattention2d0_relftattention2d0_ftanimoto0_sum3", 
      "attrs": {
        "axis": "[2, 3]", 
        "keepdims": "True"
      }, 
      "inputs": [[315, 0, 0]]
    }, 
    {
      "op": "_plus_scalar", 
      "name": "fractal_resunet_cmtsk6_fractal_resunet_features0_fractalresnet_unit1_ftattention2d0_relftattention2d0_ftanimoto0__plusscalar7", 
      "attrs": {"scalar": "1e-05"}, 
      "inputs": [[316, 0, 0]]
    }, 
    {
      "op": "broadcast_mul", 
      "name": "fractal_resunet_cmtsk6_fractal_resunet_features0_fractalresnet_unit1_ftattention2d0_relftattention2d0_ftanimoto0_broadcast_mul5", 
      "inputs": [[313, 0, 0], [313, 0, 0]]
    }, 
    {
      "op": "sum", 
      "name": "fractal_resunet_cmtsk6_fractal_resunet_features0_fractalresnet_unit1_ftattention2d0_relftattention2d0_ftanimoto0_sum4", 
      "attrs": {
        "axis": "[2, 3]", 
        "keepdims": "True"
      }, 
      "inputs": [[318, 0, 0]]
    }, 
    {
      "op": "broadcast_mul", 
      "name": "fractal_resunet_cmtsk6_fractal_resunet_features0_fractalresnet_unit1_ftattention2d0_relftattention2d0_ftanimoto0_broadcast_mul6", 
      "inputs": [[314, 0, 0], [314, 0, 0]]
    }, 
    {
      "op": "sum", 
      "name": "fractal_resunet_cmtsk6_fractal_resunet_features0_fractalresnet_unit1_ftattention2d0_relftattention2d0_ftanimoto0_sum5", 
      "attrs": {
        "axis": "[2, 3]", 
        "keepdims": "True"
      }, 
      "inputs": [[320, 0, 0]]
    }, 
    {
      "op": "elemwise_add", 
      "name": "fractal_resunet_cmtsk6_fractal_resunet_features0_fractalresnet_unit1_ftattention2d0_relftattention2d0_ftanimoto0__plus9", 
      "inputs": [[319, 0, 0], [321, 0, 0]]
    }, 
    {
      "op": "_mul_scalar", 
      "name": "fractal_resunet_cmtsk6_fractal_resunet_features0_fractalresnet_unit1_ftattention2d0_relftattention2d0_ftanimoto0__mulscalar11", 
      "attrs": {"scalar": "1.0"}, 
      "inputs": [[322, 0, 0]]
    }, 
    {
      "op": "_mul_scalar", 
      "name": "fractal_resunet_cmtsk6_fractal_resunet_features0_fractalresnet_unit1_ftattention2d0_relftattention2d0_ftanimoto0__mulscalar12", 
      "attrs": {"scalar": "-1.0"}, 
      "inputs": [[316, 0, 0]]
    }, 
    {
      "op": "broadcast_add", 
      "name": "fractal_resunet_cmtsk6_fractal_resunet_features0_fractalresnet_unit1_ftattention2d0_relftattention2d0_ftanimoto0_broadcast_add5", 
      "inputs": [[323, 0, 0], [324, 0, 0]]
    }, 
    {
      "op": "_plus_scalar", 
      "name": "fractal_resunet_cmtsk6_fractal_resunet_features0_fractalresnet_unit1_ftattention2d0_relftattention2d0_ftanimoto0__plusscalar8", 
      "attrs": {"scalar": "1e-05"}, 
      "inputs": [[325, 0, 0]]
    }, 
    {
      "op": "reciprocal", 
      "name": "fractal_resunet_cmtsk6_fractal_resunet_features0_fractalresnet_unit1_ftattention2d0_relftattention2d0_ftanimoto0_reciprocal5", 
      "inputs": [[326, 0, 0]]
    }, 
    {
      "op": "_plus_scalar", 
      "name": "fractal_resunet_cmtsk6_fractal_resunet_features0_fractalresnet_unit1_ftattention2d0_relftattention2d0_ftanimoto0__plusscalar9", 
      "attrs": {"scalar": "0.0"}, 
      "inputs": [[327, 0, 0]]
    }, 
    {
      "op": "elemwise_add", 
      "name": "fractal_resunet_cmtsk6_fractal_resunet_features0_fractalresnet_unit1_ftattention2d0_relftattention2d0_ftanimoto0__plus10", 
      "inputs": [[319, 0, 0], [321, 0, 0]]
    }, 
    {
      "op": "_mul_scalar", 
      "name": "fractal_resunet_cmtsk6_fractal_resunet_features0_fractalresnet_unit1_ftattention2d0_relftattention2d0_ftanimoto0__mulscalar13", 
      "attrs": {"scalar": "2.0"}, 
      "inputs": [[329, 0, 0]]
    }, 
    {
      "op": "_mul_scalar", 
      "name": "fractal_resunet_cmtsk6_fractal_resunet_features0_fractalresnet_unit1_ftattention2d0_relftattention2d0_ftanimoto0__mulscalar14", 
      "attrs": {"scalar": "-3.0"}, 
      "inputs": [[316, 0, 0]]
    }, 
    {
      "op": "broadcast_add", 
      "name": "fractal_resunet_cmtsk6_fractal_resunet_features0_fractalresnet_unit1_ftattention2d0_relftattention2d0_ftanimoto0_broadcast_add6", 
      "inputs": [[330, 0, 0], [331, 0, 0]]
    }, 
    {
      "op": "_plus_scalar", 
      "name": "fractal_resunet_cmtsk6_fractal_resunet_features0_fractalresnet_unit1_ftattention2d0_relftattention2d0_ftanimoto0__plusscalar10", 
      "attrs": {"scalar": "1e-05"}, 
      "inputs": [[332, 0, 0]]
    }, 
    {
      "op": "reciprocal", 
      "name": "fractal_resunet_cmtsk6_fractal_resunet_features0_fractalresnet_unit1_ftattention2d0_relftattention2d0_ftanimoto0_reciprocal6", 
      "inputs": [[333, 0, 0]]
    }, 
    {
      "op": "elemwise_add", 
      "name": "fractal_resunet_cmtsk6_fractal_resunet_features0_fractalresnet_unit1_ftattention2d0_relftattention2d0_ftanimoto0__plus11", 
      "inputs": [[328, 0, 0], [334, 0, 0]]
    }, 
    {
      "op": "elemwise_add", 
      "name": "fractal_resunet_cmtsk6_fractal_resunet_features0_fractalresnet_unit1_ftattention2d0_relftattention2d0_ftanimoto0__plus12", 
      "inputs": [[319, 0, 0], [321, 0, 0]]
    }, 
    {
      "op": "_mul_scalar", 
      "name": "fractal_resunet_cmtsk6_fractal_resunet_features0_fractalresnet_unit1_ftattention2d0_relftattention2d0_ftanimoto0__mulscalar15", 
      "attrs": {"scalar": "4.0"}, 
      "inputs": [[336, 0, 0]]
    }, 
    {
      "op": "_mul_scalar", 
      "name": "fractal_resunet_cmtsk6_fractal_resunet_features0_fractalresnet_unit1_ftattention2d0_relftattention2d0_ftanimoto0__mulscalar16", 
      "attrs": {"scalar": "-7.0"}, 
      "inputs": [[316, 0, 0]]
    }, 
    {
      "op": "broadcast_add", 
      "name": "fractal_resunet_cmtsk6_fractal_resunet_features0_fractalresnet_unit1_ftattention2d0_relftattention2d0_ftanimoto0_broadcast_add7", 
      "inputs": [[337, 0, 0], [338, 0, 0]]
    }, 
    {
      "op": "_plus_scalar", 
      "name": "fractal_resunet_cmtsk6_fractal_resunet_features0_fractalresnet_unit1_ftattention2d0_relftattention2d0_ftanimoto0__plusscalar11", 
      "attrs": {"scalar": "1e-05"}, 
      "inputs": [[339, 0, 0]]
    }, 
    {
      "op": "reciprocal", 
      "name": "fractal_resunet_cmtsk6_fractal_resunet_features0_fractalresnet_unit1_ftattention2d0_relftattention2d0_ftanimoto0_reciprocal7", 
      "inputs": [[340, 0, 0]]
    }, 
    {
      "op": "elemwise_add", 
      "name": "fractal_resunet_cmtsk6_fractal_resunet_features0_fractalresnet_unit1_ftattention2d0_relftattention2d0_ftanimoto0__plus13", 
      "inputs": [[335, 0, 0], [341, 0, 0]]
    }, 
    {
      "op": "elemwise_add", 
      "name": "fractal_resunet_cmtsk6_fractal_resunet_features0_fractalresnet_unit1_ftattention2d0_relftattention2d0_ftanimoto0__plus14", 
      "inputs": [[319, 0, 0], [321, 0, 0]]
    }, 
    {
      "op": "_mul_scalar", 
      "name": "fractal_resunet_cmtsk6_fractal_resunet_features0_fractalresnet_unit1_ftattention2d0_relftattention2d0_ftanimoto0__mulscalar17", 
      "attrs": {"scalar": "8.0"}, 
      "inputs": [[343, 0, 0]]
    }, 
    {
      "op": "_mul_scalar", 
      "name": "fractal_resunet_cmtsk6_fractal_resunet_features0_fractalresnet_unit1_ftattention2d0_relftattention2d0_ftanimoto0__mulscalar18", 
      "attrs": {"scalar": "-15.0"}, 
      "inputs": [[316, 0, 0]]
    }, 
    {
      "op": "broadcast_add", 
      "name": "fractal_resunet_cmtsk6_fractal_resunet_features0_fractalresnet_unit1_ftattention2d0_relftattention2d0_ftanimoto0_broadcast_add8", 
      "inputs": [[344, 0, 0], [345, 0, 0]]
    }, 
    {
      "op": "_plus_scalar", 
      "name": "fractal_resunet_cmtsk6_fractal_resunet_features0_fractalresnet_unit1_ftattention2d0_relftattention2d0_ftanimoto0__plusscalar12", 
      "attrs": {"scalar": "1e-05"}, 
      "inputs": [[346, 0, 0]]
    }, 
    {
      "op": "reciprocal", 
      "name": "fractal_resunet_cmtsk6_fractal_resunet_features0_fractalresnet_unit1_ftattention2d0_relftattention2d0_ftanimoto0_reciprocal8", 
      "inputs": [[347, 0, 0]]
    }, 
    {
      "op": "elemwise_add", 
      "name": "fractal_resunet_cmtsk6_fractal_resunet_features0_fractalresnet_unit1_ftattention2d0_relftattention2d0_ftanimoto0__plus15", 
      "inputs": [[342, 0, 0], [348, 0, 0]]
    }, 
    {
      "op": "elemwise_add", 
      "name": "fractal_resunet_cmtsk6_fractal_resunet_features0_fractalresnet_unit1_ftattention2d0_relftattention2d0_ftanimoto0__plus16", 
      "inputs": [[319, 0, 0], [321, 0, 0]]
    }, 
    {
      "op": "_mul_scalar", 
      "name": "fractal_resunet_cmtsk6_fractal_resunet_features0_fractalresnet_unit1_ftattention2d0_relftattention2d0_ftanimoto0__mulscalar19", 
      "attrs": {"scalar": "16.0"}, 
      "inputs": [[350, 0, 0]]
    }, 
    {
      "op": "_mul_scalar", 
      "name": "fractal_resunet_cmtsk6_fractal_resunet_features0_fractalresnet_unit1_ftattention2d0_relftattention2d0_ftanimoto0__mulscalar20", 
      "attrs": {"scalar": "-31.0"}, 
      "inputs": [[316, 0, 0]]
    }, 
    {
      "op": "broadcast_add", 
      "name": "fractal_resunet_cmtsk6_fractal_resunet_features0_fractalresnet_unit1_ftattention2d0_relftattention2d0_ftanimoto0_broadcast_add9", 
      "inputs": [[351, 0, 0], [352, 0, 0]]
    }, 
    {
      "op": "_plus_scalar", 
      "name": "fractal_resunet_cmtsk6_fractal_resunet_features0_fractalresnet_unit1_ftattention2d0_relftattention2d0_ftanimoto0__plusscalar13", 
      "attrs": {"scalar": "1e-05"}, 
      "inputs": [[353, 0, 0]]
    }, 
    {
      "op": "reciprocal", 
      "name": "fractal_resunet_cmtsk6_fractal_resunet_features0_fractalresnet_unit1_ftattention2d0_relftattention2d0_ftanimoto0_reciprocal9", 
      "inputs": [[354, 0, 0]]
    }, 
    {
      "op": "elemwise_add", 
      "name": "fractal_resunet_cmtsk6_fractal_resunet_features0_fractalresnet_unit1_ftattention2d0_relftattention2d0_ftanimoto0__plus17", 
      "inputs": [[349, 0, 0], [355, 0, 0]]
    }, 
    {
      "op": "broadcast_mul", 
      "name": "fractal_resunet_cmtsk6_fractal_resunet_features0_fractalresnet_unit1_ftattention2d0_relftattention2d0_ftanimoto0_broadcast_mul7", 
      "inputs": [[317, 0, 0], [356, 0, 0]]
    }, 
    {
      "op": "_mul_scalar", 
      "name": "fractal_resunet_cmtsk6_fractal_resunet_features0_fractalresnet_unit1_ftattention2d0_relftattention2d0_ftanimoto0__mulscalar21", 
      "attrs": {"scalar": "0.2"}, 
      "inputs": [[357, 0, 0]]
    }, 
    {
      "op": "elemwise_add", 
      "name": "fractal_resunet_cmtsk6_fractal_resunet_features0_fractalresnet_unit1_ftattention2d0_relftattention2d0_ftanimoto0__plus18", 
      "inputs": [[312, 0, 0], [358, 0, 0]]
    }, 
    {
      "op": "_mul_scalar", 
      "name": "fractal_resunet_cmtsk6_fractal_resunet_features0_fractalresnet_unit1_ftattention2d0_relftattention2d0_ftanimoto0__mulscalar22", 
      "attrs": {"scalar": "0.5"}, 
      "inputs": [[359, 0, 0]]
    }, 
    {
      "op": "null", 
      "name": "fractal_resunet_cmtsk6_fractal_resunet_features0_fractalresnet_unit1_ftattention2d0_relftattention2d0_conv2dnormed2_conv0_weight", 
      "attrs": {
        "__dtype__": "0", 
        "__lr_mult__": "1.0", 
        "__shape__": "(64, 0, 3, 3)", 
        "__storage_type__": "0", 
        "__wd_mult__": "1.0"
      }, 
      "inputs": []
    }, 
    {
      "op": "Convolution", 
      "name": "fractal_resunet_cmtsk6_fractal_resunet_features0_fractalresnet_unit1_ftattention2d0_relftattention2d0_conv2dnormed2_conv0_fwd", 
      "attrs": {
        "dilate": "(1, 1)", 
        "kernel": "(3, 3)", 
        "layout": "NCHW", 
        "no_bias": "True", 
        "num_filter": "64", 
        "num_group": "1", 
        "pad": "(1, 1)", 
        "stride": "(1, 1)"
      }, 
      "inputs": [[240, 0, 0], [361, 0, 0]]
    }, 
    {
      "op": "null", 
      "name": "fractal_resunet_cmtsk6_fractal_resunet_features0_fractalresnet_unit1_ftattention2d0_relftattention2d0_conv2dnormed2_groupnorm0_gamma", 
      "attrs": {
        "__dtype__": "0", 
        "__init__": "ones", 
        "__lr_mult__": "1.0", 
        "__shape__": "(4,)", 
        "__storage_type__": "0", 
        "__wd_mult__": "1.0"
      }, 
      "inputs": []
    }, 
    {
      "op": "null", 
      "name": "fractal_resunet_cmtsk6_fractal_resunet_features0_fractalresnet_unit1_ftattention2d0_relftattention2d0_conv2dnormed2_groupnorm0_beta", 
      "attrs": {
        "__dtype__": "0", 
        "__init__": "zeros", 
        "__lr_mult__": "1.0", 
        "__shape__": "(4,)", 
        "__storage_type__": "0", 
        "__wd_mult__": "1.0"
      }, 
      "inputs": []
    }, 
    {
      "op": "GroupNorm", 
      "name": "fractal_resunet_cmtsk6_fractal_resunet_features0_fractalresnet_unit1_ftattention2d0_relftattention2d0_conv2dnormed2_groupnorm0_groupnorm0", 
      "attrs": {
        "eps": "1e-05", 
        "num_groups": "4"
      }, 
      "inputs": [[362, 0, 0], [363, 0, 0], [364, 0, 0]]
    }, 
    {
      "op": "sigmoid", 
      "name": "fractal_resunet_cmtsk6_fractal_resunet_features0_fractalresnet_unit1_ftattention2d0_relftattention2d0_sigmoid2", 
      "inputs": [[365, 0, 0]]
    }, 
    {
      "op": "broadcast_mul", 
      "name": "fractal_resunet_cmtsk6_fractal_resunet_features0_fractalresnet_unit1_ftattention2d0_relftattention2d0_broadcast_mul1", 
      "inputs": [[360, 0, 0], [366, 0, 0]]
    }, 
    {
      "op": "broadcast_mul", 
      "name": "fractal_resunet_cmtsk6_fractal_resunet_features0_fractalresnet_unit1_ftattention2d0_relftattention2d0_ftanimoto1_broadcast_mul0", 
      "inputs": [[262, 0, 0], [268, 0, 0]]
    }, 
    {
      "op": "sum", 
      "name": "fractal_resunet_cmtsk6_fractal_resunet_features0_fractalresnet_unit1_ftattention2d0_relftattention2d0_ftanimoto1_sum0", 
      "attrs": {
        "axis": "1", 
        "keepdims": "True"
      }, 
      "inputs": [[368, 0, 0]]
    }, 
    {
      "op": "_plus_scalar", 
      "name": "fractal_resunet_cmtsk6_fractal_resunet_features0_fractalresnet_unit1_ftattention2d0_relftattention2d0_ftanimoto1__plusscalar0", 
      "attrs": {"scalar": "1e-05"}, 
      "inputs": [[369, 0, 0]]
    }, 
    {
      "op": "broadcast_mul", 
      "name": "fractal_resunet_cmtsk6_fractal_resunet_features0_fractalresnet_unit1_ftattention2d0_relftattention2d0_ftanimoto1_broadcast_mul1", 
      "inputs": [[262, 0, 0], [262, 0, 0]]
    }, 
    {
      "op": "sum", 
      "name": "fractal_resunet_cmtsk6_fractal_resunet_features0_fractalresnet_unit1_ftattention2d0_relftattention2d0_ftanimoto1_sum1", 
      "attrs": {
        "axis": "1", 
        "keepdims": "True"
      }, 
      "inputs": [[371, 0, 0]]
    }, 
    {
      "op": "broadcast_mul", 
      "name": "fractal_resunet_cmtsk6_fractal_resunet_features0_fractalresnet_unit1_ftattention2d0_relftattention2d0_ftanimoto1_broadcast_mul2", 
      "inputs": [[268, 0, 0], [268, 0, 0]]
    }, 
    {
      "op": "sum", 
      "name": "fractal_resunet_cmtsk6_fractal_resunet_features0_fractalresnet_unit1_ftattention2d0_relftattention2d0_ftanimoto1_sum2", 
      "attrs": {
        "axis": "1", 
        "keepdims": "True"
      }, 
      "inputs": [[373, 0, 0]]
    }, 
    {
      "op": "elemwise_add", 
      "name": "fractal_resunet_cmtsk6_fractal_resunet_features0_fractalresnet_unit1_ftattention2d0_relftattention2d0_ftanimoto1__plus0", 
      "inputs": [[372, 0, 0], [374, 0, 0]]
    }, 
    {
      "op": "_mul_scalar", 
      "name": "fractal_resunet_cmtsk6_fractal_resunet_features0_fractalresnet_unit1_ftattention2d0_relftattention2d0_ftanimoto1__mulscalar0", 
      "attrs": {"scalar": "1.0"}, 
      "inputs": [[375, 0, 0]]
    }, 
    {
      "op": "_mul_scalar", 
      "name": "fractal_resunet_cmtsk6_fractal_resunet_features0_fractalresnet_unit1_ftattention2d0_relftattention2d0_ftanimoto1__mulscalar1", 
      "attrs": {"scalar": "-1.0"}, 
      "inputs": [[369, 0, 0]]
    }, 
    {
      "op": "broadcast_add", 
      "name": "fractal_resunet_cmtsk6_fractal_resunet_features0_fractalresnet_unit1_ftattention2d0_relftattention2d0_ftanimoto1_broadcast_add0", 
      "inputs": [[376, 0, 0], [377, 0, 0]]
    }, 
    {
      "op": "_plus_scalar", 
      "name": "fractal_resunet_cmtsk6_fractal_resunet_features0_fractalresnet_unit1_ftattention2d0_relftattention2d0_ftanimoto1__plusscalar1", 
      "attrs": {"scalar": "1e-05"}, 
      "inputs": [[378, 0, 0]]
    }, 
    {
      "op": "reciprocal", 
      "name": "fractal_resunet_cmtsk6_fractal_resunet_features0_fractalresnet_unit1_ftattention2d0_relftattention2d0_ftanimoto1_reciprocal0", 
      "inputs": [[379, 0, 0]]
    }, 
    {
      "op": "_plus_scalar", 
      "name": "fractal_resunet_cmtsk6_fractal_resunet_features0_fractalresnet_unit1_ftattention2d0_relftattention2d0_ftanimoto1__plusscalar2", 
      "attrs": {"scalar": "0.0"}, 
      "inputs": [[380, 0, 0]]
    }, 
    {
      "op": "elemwise_add", 
      "name": "fractal_resunet_cmtsk6_fractal_resunet_features0_fractalresnet_unit1_ftattention2d0_relftattention2d0_ftanimoto1__plus1", 
      "inputs": [[372, 0, 0], [374, 0, 0]]
    }, 
    {
      "op": "_mul_scalar", 
      "name": "fractal_resunet_cmtsk6_fractal_resunet_features0_fractalresnet_unit1_ftattention2d0_relftattention2d0_ftanimoto1__mulscalar2", 
      "attrs": {"scalar": "2.0"}, 
      "inputs": [[382, 0, 0]]
    }, 
    {
      "op": "_mul_scalar", 
      "name": "fractal_resunet_cmtsk6_fractal_resunet_features0_fractalresnet_unit1_ftattention2d0_relftattention2d0_ftanimoto1__mulscalar3", 
      "attrs": {"scalar": "-3.0"}, 
      "inputs": [[369, 0, 0]]
    }, 
    {
      "op": "broadcast_add", 
      "name": "fractal_resunet_cmtsk6_fractal_resunet_features0_fractalresnet_unit1_ftattention2d0_relftattention2d0_ftanimoto1_broadcast_add1", 
      "inputs": [[383, 0, 0], [384, 0, 0]]
    }, 
    {
      "op": "_plus_scalar", 
      "name": "fractal_resunet_cmtsk6_fractal_resunet_features0_fractalresnet_unit1_ftattention2d0_relftattention2d0_ftanimoto1__plusscalar3", 
      "attrs": {"scalar": "1e-05"}, 
      "inputs": [[385, 0, 0]]
    }, 
    {
      "op": "reciprocal", 
      "name": "fractal_resunet_cmtsk6_fractal_resunet_features0_fractalresnet_unit1_ftattention2d0_relftattention2d0_ftanimoto1_reciprocal1", 
      "inputs": [[386, 0, 0]]
    }, 
    {
      "op": "elemwise_add", 
      "name": "fractal_resunet_cmtsk6_fractal_resunet_features0_fractalresnet_unit1_ftattention2d0_relftattention2d0_ftanimoto1__plus2", 
      "inputs": [[381, 0, 0], [387, 0, 0]]
    }, 
    {
      "op": "elemwise_add", 
      "name": "fractal_resunet_cmtsk6_fractal_resunet_features0_fractalresnet_unit1_ftattention2d0_relftattention2d0_ftanimoto1__plus3", 
      "inputs": [[372, 0, 0], [374, 0, 0]]
    }, 
    {
      "op": "_mul_scalar", 
      "name": "fractal_resunet_cmtsk6_fractal_resunet_features0_fractalresnet_unit1_ftattention2d0_relftattention2d0_ftanimoto1__mulscalar4", 
      "attrs": {"scalar": "4.0"}, 
      "inputs": [[389, 0, 0]]
    }, 
    {
      "op": "_mul_scalar", 
      "name": "fractal_resunet_cmtsk6_fractal_resunet_features0_fractalresnet_unit1_ftattention2d0_relftattention2d0_ftanimoto1__mulscalar5", 
      "attrs": {"scalar": "-7.0"}, 
      "inputs": [[369, 0, 0]]
    }, 
    {
      "op": "broadcast_add", 
      "name": "fractal_resunet_cmtsk6_fractal_resunet_features0_fractalresnet_unit1_ftattention2d0_relftattention2d0_ftanimoto1_broadcast_add2", 
      "inputs": [[390, 0, 0], [391, 0, 0]]
    }, 
    {
      "op": "_plus_scalar", 
      "name": "fractal_resunet_cmtsk6_fractal_resunet_features0_fractalresnet_unit1_ftattention2d0_relftattention2d0_ftanimoto1__plusscalar4", 
      "attrs": {"scalar": "1e-05"}, 
      "inputs": [[392, 0, 0]]
    }, 
    {
      "op": "reciprocal", 
      "name": "fractal_resunet_cmtsk6_fractal_resunet_features0_fractalresnet_unit1_ftattention2d0_relftattention2d0_ftanimoto1_reciprocal2", 
      "inputs": [[393, 0, 0]]
    }, 
    {
      "op": "elemwise_add", 
      "name": "fractal_resunet_cmtsk6_fractal_resunet_features0_fractalresnet_unit1_ftattention2d0_relftattention2d0_ftanimoto1__plus4", 
      "inputs": [[388, 0, 0], [394, 0, 0]]
    }, 
    {
      "op": "elemwise_add", 
      "name": "fractal_resunet_cmtsk6_fractal_resunet_features0_fractalresnet_unit1_ftattention2d0_relftattention2d0_ftanimoto1__plus5", 
      "inputs": [[372, 0, 0], [374, 0, 0]]
    }, 
    {
      "op": "_mul_scalar", 
      "name": "fractal_resunet_cmtsk6_fractal_resunet_features0_fractalresnet_unit1_ftattention2d0_relftattention2d0_ftanimoto1__mulscalar6", 
      "attrs": {"scalar": "8.0"}, 
      "inputs": [[396, 0, 0]]
    }, 
    {
      "op": "_mul_scalar", 
      "name": "fractal_resunet_cmtsk6_fractal_resunet_features0_fractalresnet_unit1_ftattention2d0_relftattention2d0_ftanimoto1__mulscalar7", 
      "attrs": {"scalar": "-15.0"}, 
      "inputs": [[369, 0, 0]]
    }, 
    {
      "op": "broadcast_add", 
      "name": "fractal_resunet_cmtsk6_fractal_resunet_features0_fractalresnet_unit1_ftattention2d0_relftattention2d0_ftanimoto1_broadcast_add3", 
      "inputs": [[397, 0, 0], [398, 0, 0]]
    }, 
    {
      "op": "_plus_scalar", 
      "name": "fractal_resunet_cmtsk6_fractal_resunet_features0_fractalresnet_unit1_ftattention2d0_relftattention2d0_ftanimoto1__plusscalar5", 
      "attrs": {"scalar": "1e-05"}, 
      "inputs": [[399, 0, 0]]
    }, 
    {
      "op": "reciprocal", 
      "name": "fractal_resunet_cmtsk6_fractal_resunet_features0_fractalresnet_unit1_ftattention2d0_relftattention2d0_ftanimoto1_reciprocal3", 
      "inputs": [[400, 0, 0]]
    }, 
    {
      "op": "elemwise_add", 
      "name": "fractal_resunet_cmtsk6_fractal_resunet_features0_fractalresnet_unit1_ftattention2d0_relftattention2d0_ftanimoto1__plus6", 
      "inputs": [[395, 0, 0], [401, 0, 0]]
    }, 
    {
      "op": "elemwise_add", 
      "name": "fractal_resunet_cmtsk6_fractal_resunet_features0_fractalresnet_unit1_ftattention2d0_relftattention2d0_ftanimoto1__plus7", 
      "inputs": [[372, 0, 0], [374, 0, 0]]
    }, 
    {
      "op": "_mul_scalar", 
      "name": "fractal_resunet_cmtsk6_fractal_resunet_features0_fractalresnet_unit1_ftattention2d0_relftattention2d0_ftanimoto1__mulscalar8", 
      "attrs": {"scalar": "16.0"}, 
      "inputs": [[403, 0, 0]]
    }, 
    {
      "op": "_mul_scalar", 
      "name": "fractal_resunet_cmtsk6_fractal_resunet_features0_fractalresnet_unit1_ftattention2d0_relftattention2d0_ftanimoto1__mulscalar9", 
      "attrs": {"scalar": "-31.0"}, 
      "inputs": [[369, 0, 0]]
    }, 
    {
      "op": "broadcast_add", 
      "name": "fractal_resunet_cmtsk6_fractal_resunet_features0_fractalresnet_unit1_ftattention2d0_relftattention2d0_ftanimoto1_broadcast_add4", 
      "inputs": [[404, 0, 0], [405, 0, 0]]
    }, 
    {
      "op": "_plus_scalar", 
      "name": "fractal_resunet_cmtsk6_fractal_resunet_features0_fractalresnet_unit1_ftattention2d0_relftattention2d0_ftanimoto1__plusscalar6", 
      "attrs": {"scalar": "1e-05"}, 
      "inputs": [[406, 0, 0]]
    }, 
    {
      "op": "reciprocal", 
      "name": "fractal_resunet_cmtsk6_fractal_resunet_features0_fractalresnet_unit1_ftattention2d0_relftattention2d0_ftanimoto1_reciprocal4", 
      "inputs": [[407, 0, 0]]
    }, 
    {
      "op": "elemwise_add", 
      "name": "fractal_resunet_cmtsk6_fractal_resunet_features0_fractalresnet_unit1_ftattention2d0_relftattention2d0_ftanimoto1__plus8", 
      "inputs": [[402, 0, 0], [408, 0, 0]]
    }, 
    {
      "op": "broadcast_mul", 
      "name": "fractal_resunet_cmtsk6_fractal_resunet_features0_fractalresnet_unit1_ftattention2d0_relftattention2d0_ftanimoto1_broadcast_mul3", 
      "inputs": [[370, 0, 0], [409, 0, 0]]
    }, 
    {
      "op": "_mul_scalar", 
      "name": "fractal_resunet_cmtsk6_fractal_resunet_features0_fractalresnet_unit1_ftattention2d0_relftattention2d0_ftanimoto1__mulscalar10", 
      "attrs": {"scalar": "0.2"}, 
      "inputs": [[410, 0, 0]]
    }, 
    {
      "op": "_rminus_scalar", 
      "name": "fractal_resunet_cmtsk6_fractal_resunet_features0_fractalresnet_unit1_ftattention2d0_relftattention2d0_ftanimoto1__rminusscalar0", 
      "attrs": {"scalar": "1.0"}, 
      "inputs": [[262, 0, 0]]
    }, 
    {
      "op": "_rminus_scalar", 
      "name": "fractal_resunet_cmtsk6_fractal_resunet_features0_fractalresnet_unit1_ftattention2d0_relftattention2d0_ftanimoto1__rminusscalar1", 
      "attrs": {"scalar": "1.0"}, 
      "inputs": [[268, 0, 0]]
    }, 
    {
      "op": "broadcast_mul", 
      "name": "fractal_resunet_cmtsk6_fractal_resunet_features0_fractalresnet_unit1_ftattention2d0_relftattention2d0_ftanimoto1_broadcast_mul4", 
      "inputs": [[412, 0, 0], [413, 0, 0]]
    }, 
    {
      "op": "sum", 
      "name": "fractal_resunet_cmtsk6_fractal_resunet_features0_fractalresnet_unit1_ftattention2d0_relftattention2d0_ftanimoto1_sum3", 
      "attrs": {
        "axis": "1", 
        "keepdims": "True"
      }, 
      "inputs": [[414, 0, 0]]
    }, 
    {
      "op": "_plus_scalar", 
      "name": "fractal_resunet_cmtsk6_fractal_resunet_features0_fractalresnet_unit1_ftattention2d0_relftattention2d0_ftanimoto1__plusscalar7", 
      "attrs": {"scalar": "1e-05"}, 
      "inputs": [[415, 0, 0]]
    }, 
    {
      "op": "broadcast_mul", 
      "name": "fractal_resunet_cmtsk6_fractal_resunet_features0_fractalresnet_unit1_ftattention2d0_relftattention2d0_ftanimoto1_broadcast_mul5", 
      "inputs": [[412, 0, 0], [412, 0, 0]]
    }, 
    {
      "op": "sum", 
      "name": "fractal_resunet_cmtsk6_fractal_resunet_features0_fractalresnet_unit1_ftattention2d0_relftattention2d0_ftanimoto1_sum4", 
      "attrs": {
        "axis": "1", 
        "keepdims": "True"
      }, 
      "inputs": [[417, 0, 0]]
    }, 
    {
      "op": "broadcast_mul", 
      "name": "fractal_resunet_cmtsk6_fractal_resunet_features0_fractalresnet_unit1_ftattention2d0_relftattention2d0_ftanimoto1_broadcast_mul6", 
      "inputs": [[413, 0, 0], [413, 0, 0]]
    }, 
    {
      "op": "sum", 
      "name": "fractal_resunet_cmtsk6_fractal_resunet_features0_fractalresnet_unit1_ftattention2d0_relftattention2d0_ftanimoto1_sum5", 
      "attrs": {
        "axis": "1", 
        "keepdims": "True"
      }, 
      "inputs": [[419, 0, 0]]
    }, 
    {
      "op": "elemwise_add", 
      "name": "fractal_resunet_cmtsk6_fractal_resunet_features0_fractalresnet_unit1_ftattention2d0_relftattention2d0_ftanimoto1__plus9", 
      "inputs": [[418, 0, 0], [420, 0, 0]]
    }, 
    {
      "op": "_mul_scalar", 
      "name": "fractal_resunet_cmtsk6_fractal_resunet_features0_fractalresnet_unit1_ftattention2d0_relftattention2d0_ftanimoto1__mulscalar11", 
      "attrs": {"scalar": "1.0"}, 
      "inputs": [[421, 0, 0]]
    }, 
    {
      "op": "_mul_scalar", 
      "name": "fractal_resunet_cmtsk6_fractal_resunet_features0_fractalresnet_unit1_ftattention2d0_relftattention2d0_ftanimoto1__mulscalar12", 
      "attrs": {"scalar": "-1.0"}, 
      "inputs": [[415, 0, 0]]
    }, 
    {
      "op": "broadcast_add", 
      "name": "fractal_resunet_cmtsk6_fractal_resunet_features0_fractalresnet_unit1_ftattention2d0_relftattention2d0_ftanimoto1_broadcast_add5", 
      "inputs": [[422, 0, 0], [423, 0, 0]]
    }, 
    {
      "op": "_plus_scalar", 
      "name": "fractal_resunet_cmtsk6_fractal_resunet_features0_fractalresnet_unit1_ftattention2d0_relftattention2d0_ftanimoto1__plusscalar8", 
      "attrs": {"scalar": "1e-05"}, 
      "inputs": [[424, 0, 0]]
    }, 
    {
      "op": "reciprocal", 
      "name": "fractal_resunet_cmtsk6_fractal_resunet_features0_fractalresnet_unit1_ftattention2d0_relftattention2d0_ftanimoto1_reciprocal5", 
      "inputs": [[425, 0, 0]]
    }, 
    {
      "op": "_plus_scalar", 
      "name": "fractal_resunet_cmtsk6_fractal_resunet_features0_fractalresnet_unit1_ftattention2d0_relftattention2d0_ftanimoto1__plusscalar9", 
      "attrs": {"scalar": "0.0"}, 
      "inputs": [[426, 0, 0]]
    }, 
    {
      "op": "elemwise_add", 
      "name": "fractal_resunet_cmtsk6_fractal_resunet_features0_fractalresnet_unit1_ftattention2d0_relftattention2d0_ftanimoto1__plus10", 
      "inputs": [[418, 0, 0], [420, 0, 0]]
    }, 
    {
      "op": "_mul_scalar", 
      "name": "fractal_resunet_cmtsk6_fractal_resunet_features0_fractalresnet_unit1_ftattention2d0_relftattention2d0_ftanimoto1__mulscalar13", 
      "attrs": {"scalar": "2.0"}, 
      "inputs": [[428, 0, 0]]
    }, 
    {
      "op": "_mul_scalar", 
      "name": "fractal_resunet_cmtsk6_fractal_resunet_features0_fractalresnet_unit1_ftattention2d0_relftattention2d0_ftanimoto1__mulscalar14", 
      "attrs": {"scalar": "-3.0"}, 
      "inputs": [[415, 0, 0]]
    }, 
    {
      "op": "broadcast_add", 
      "name": "fractal_resunet_cmtsk6_fractal_resunet_features0_fractalresnet_unit1_ftattention2d0_relftattention2d0_ftanimoto1_broadcast_add6", 
      "inputs": [[429, 0, 0], [430, 0, 0]]
    }, 
    {
      "op": "_plus_scalar", 
      "name": "fractal_resunet_cmtsk6_fractal_resunet_features0_fractalresnet_unit1_ftattention2d0_relftattention2d0_ftanimoto1__plusscalar10", 
      "attrs": {"scalar": "1e-05"}, 
      "inputs": [[431, 0, 0]]
    }, 
    {
      "op": "reciprocal", 
      "name": "fractal_resunet_cmtsk6_fractal_resunet_features0_fractalresnet_unit1_ftattention2d0_relftattention2d0_ftanimoto1_reciprocal6", 
      "inputs": [[432, 0, 0]]
    }, 
    {
      "op": "elemwise_add", 
      "name": "fractal_resunet_cmtsk6_fractal_resunet_features0_fractalresnet_unit1_ftattention2d0_relftattention2d0_ftanimoto1__plus11", 
      "inputs": [[427, 0, 0], [433, 0, 0]]
    }, 
    {
      "op": "elemwise_add", 
      "name": "fractal_resunet_cmtsk6_fractal_resunet_features0_fractalresnet_unit1_ftattention2d0_relftattention2d0_ftanimoto1__plus12", 
      "inputs": [[418, 0, 0], [420, 0, 0]]
    }, 
    {
      "op": "_mul_scalar", 
      "name": "fractal_resunet_cmtsk6_fractal_resunet_features0_fractalresnet_unit1_ftattention2d0_relftattention2d0_ftanimoto1__mulscalar15", 
      "attrs": {"scalar": "4.0"}, 
      "inputs": [[435, 0, 0]]
    }, 
    {
      "op": "_mul_scalar", 
      "name": "fractal_resunet_cmtsk6_fractal_resunet_features0_fractalresnet_unit1_ftattention2d0_relftattention2d0_ftanimoto1__mulscalar16", 
      "attrs": {"scalar": "-7.0"}, 
      "inputs": [[415, 0, 0]]
    }, 
    {
      "op": "broadcast_add", 
      "name": "fractal_resunet_cmtsk6_fractal_resunet_features0_fractalresnet_unit1_ftattention2d0_relftattention2d0_ftanimoto1_broadcast_add7", 
      "inputs": [[436, 0, 0], [437, 0, 0]]
    }, 
    {
      "op": "_plus_scalar", 
      "name": "fractal_resunet_cmtsk6_fractal_resunet_features0_fractalresnet_unit1_ftattention2d0_relftattention2d0_ftanimoto1__plusscalar11", 
      "attrs": {"scalar": "1e-05"}, 
      "inputs": [[438, 0, 0]]
    }, 
    {
      "op": "reciprocal", 
      "name": "fractal_resunet_cmtsk6_fractal_resunet_features0_fractalresnet_unit1_ftattention2d0_relftattention2d0_ftanimoto1_reciprocal7", 
      "inputs": [[439, 0, 0]]
    }, 
    {
      "op": "elemwise_add", 
      "name": "fractal_resunet_cmtsk6_fractal_resunet_features0_fractalresnet_unit1_ftattention2d0_relftattention2d0_ftanimoto1__plus13", 
      "inputs": [[434, 0, 0], [440, 0, 0]]
    }, 
    {
      "op": "elemwise_add", 
      "name": "fractal_resunet_cmtsk6_fractal_resunet_features0_fractalresnet_unit1_ftattention2d0_relftattention2d0_ftanimoto1__plus14", 
      "inputs": [[418, 0, 0], [420, 0, 0]]
    }, 
    {
      "op": "_mul_scalar", 
      "name": "fractal_resunet_cmtsk6_fractal_resunet_features0_fractalresnet_unit1_ftattention2d0_relftattention2d0_ftanimoto1__mulscalar17", 
      "attrs": {"scalar": "8.0"}, 
      "inputs": [[442, 0, 0]]
    }, 
    {
      "op": "_mul_scalar", 
      "name": "fractal_resunet_cmtsk6_fractal_resunet_features0_fractalresnet_unit1_ftattention2d0_relftattention2d0_ftanimoto1__mulscalar18", 
      "attrs": {"scalar": "-15.0"}, 
      "inputs": [[415, 0, 0]]
    }, 
    {
      "op": "broadcast_add", 
      "name": "fractal_resunet_cmtsk6_fractal_resunet_features0_fractalresnet_unit1_ftattention2d0_relftattention2d0_ftanimoto1_broadcast_add8", 
      "inputs": [[443, 0, 0], [444, 0, 0]]
    }, 
    {
      "op": "_plus_scalar", 
      "name": "fractal_resunet_cmtsk6_fractal_resunet_features0_fractalresnet_unit1_ftattention2d0_relftattention2d0_ftanimoto1__plusscalar12", 
      "attrs": {"scalar": "1e-05"}, 
      "inputs": [[445, 0, 0]]
    }, 
    {
      "op": "reciprocal", 
      "name": "fractal_resunet_cmtsk6_fractal_resunet_features0_fractalresnet_unit1_ftattention2d0_relftattention2d0_ftanimoto1_reciprocal8", 
      "inputs": [[446, 0, 0]]
    }, 
    {
      "op": "elemwise_add", 
      "name": "fractal_resunet_cmtsk6_fractal_resunet_features0_fractalresnet_unit1_ftattention2d0_relftattention2d0_ftanimoto1__plus15", 
      "inputs": [[441, 0, 0], [447, 0, 0]]
    }, 
    {
      "op": "elemwise_add", 
      "name": "fractal_resunet_cmtsk6_fractal_resunet_features0_fractalresnet_unit1_ftattention2d0_relftattention2d0_ftanimoto1__plus16", 
      "inputs": [[418, 0, 0], [420, 0, 0]]
    }, 
    {
      "op": "_mul_scalar", 
      "name": "fractal_resunet_cmtsk6_fractal_resunet_features0_fractalresnet_unit1_ftattention2d0_relftattention2d0_ftanimoto1__mulscalar19", 
      "attrs": {"scalar": "16.0"}, 
      "inputs": [[449, 0, 0]]
    }, 
    {
      "op": "_mul_scalar", 
      "name": "fractal_resunet_cmtsk6_fractal_resunet_features0_fractalresnet_unit1_ftattention2d0_relftattention2d0_ftanimoto1__mulscalar20", 
      "attrs": {"scalar": "-31.0"}, 
      "inputs": [[415, 0, 0]]
    }, 
    {
      "op": "broadcast_add", 
      "name": "fractal_resunet_cmtsk6_fractal_resunet_features0_fractalresnet_unit1_ftattention2d0_relftattention2d0_ftanimoto1_broadcast_add9", 
      "inputs": [[450, 0, 0], [451, 0, 0]]
    }, 
    {
      "op": "_plus_scalar", 
      "name": "fractal_resunet_cmtsk6_fractal_resunet_features0_fractalresnet_unit1_ftattention2d0_relftattention2d0_ftanimoto1__plusscalar13", 
      "attrs": {"scalar": "1e-05"}, 
      "inputs": [[452, 0, 0]]
    }, 
    {
      "op": "reciprocal", 
      "name": "fractal_resunet_cmtsk6_fractal_resunet_features0_fractalresnet_unit1_ftattention2d0_relftattention2d0_ftanimoto1_reciprocal9", 
      "inputs": [[453, 0, 0]]
    }, 
    {
      "op": "elemwise_add", 
      "name": "fractal_resunet_cmtsk6_fractal_resunet_features0_fractalresnet_unit1_ftattention2d0_relftattention2d0_ftanimoto1__plus17", 
      "inputs": [[448, 0, 0], [454, 0, 0]]
    }, 
    {
      "op": "broadcast_mul", 
      "name": "fractal_resunet_cmtsk6_fractal_resunet_features0_fractalresnet_unit1_ftattention2d0_relftattention2d0_ftanimoto1_broadcast_mul7", 
      "inputs": [[416, 0, 0], [455, 0, 0]]
    }, 
    {
      "op": "_mul_scalar", 
      "name": "fractal_resunet_cmtsk6_fractal_resunet_features0_fractalresnet_unit1_ftattention2d0_relftattention2d0_ftanimoto1__mulscalar21", 
      "attrs": {"scalar": "0.2"}, 
      "inputs": [[456, 0, 0]]
    }, 
    {
      "op": "elemwise_add", 
      "name": "fractal_resunet_cmtsk6_fractal_resunet_features0_fractalresnet_unit1_ftattention2d0_relftattention2d0_ftanimoto1__plus18", 
      "inputs": [[411, 0, 0], [457, 0, 0]]
    }, 
    {
      "op": "_mul_scalar", 
      "name": "fractal_resunet_cmtsk6_fractal_resunet_features0_fractalresnet_unit1_ftattention2d0_relftattention2d0_ftanimoto1__mulscalar22", 
      "attrs": {"scalar": "0.5"}, 
      "inputs": [[458, 0, 0]]
    }, 
    {
      "op": "broadcast_mul", 
      "name": "fractal_resunet_cmtsk6_fractal_resunet_features0_fractalresnet_unit1_ftattention2d0_relftattention2d0_broadcast_mul0", 
      "inputs": [[459, 0, 0], [366, 0, 0]]
    }, 
    {
      "op": "broadcast_add", 
      "name": "fractal_resunet_cmtsk6_fractal_resunet_features0_fractalresnet_unit1_ftattention2d0_relftattention2d0_broadcast_add0", 
      "inputs": [[367, 0, 0], [460, 0, 0]]
    }, 
    {
      "op": "_mul_scalar", 
      "name": "fractal_resunet_cmtsk6_fractal_resunet_features0_fractalresnet_unit1_ftattention2d0_relftattention2d0__mulscalar0", 
      "attrs": {"scalar": "0.5"}, 
      "inputs": [[461, 0, 0]]
    }, 
    {
      "op": "null", 
      "name": "fractal_resunet_cmtsk6_fractal_resunet_features0_fractalresnet_unit1_ftattention2d0_relftattention2d0_groupnorm0_gamma", 
      "attrs": {
        "__dtype__": "0", 
        "__init__": "ones", 
        "__lr_mult__": "1.0", 
        "__shape__": "(4,)", 
        "__storage_type__": "0", 
        "__wd_mult__": "1.0"
      }, 
      "inputs": []
    }, 
    {
      "op": "null", 
      "name": "fractal_resunet_cmtsk6_fractal_resunet_features0_fractalresnet_unit1_ftattention2d0_relftattention2d0_groupnorm0_beta", 
      "attrs": {
        "__dtype__": "0", 
        "__init__": "zeros", 
        "__lr_mult__": "1.0", 
        "__shape__": "(4,)", 
        "__storage_type__": "0", 
        "__wd_mult__": "1.0"
      }, 
      "inputs": []
    }, 
    {
      "op": "GroupNorm", 
      "name": "fractal_resunet_cmtsk6_fractal_resunet_features0_fractalresnet_unit1_ftattention2d0_relftattention2d0_groupnorm0_groupnorm0", 
      "attrs": {
        "eps": "1e-05", 
        "num_groups": "4"
      }, 
      "inputs": [[462, 0, 0], [463, 0, 0], [464, 0, 0]]
    }, 
    {
      "op": "broadcast_mul", 
      "name": "fractal_resunet_cmtsk6_fractal_resunet_features0_fractalresnet_unit1_broadcast_mul0", 
      "inputs": [[256, 0, 0], [465, 0, 0]]
    }, 
    {
      "op": "elemwise_add", 
      "name": "fractal_resunet_cmtsk6_fractal_resunet_features0_fractalresnet_unit1__plus1", 
      "inputs": [[255, 0, 0], [466, 0, 0]]
    }, 
    {
      "op": "broadcast_mul", 
      "name": "fractal_resunet_cmtsk6_fractal_resunet_features0_fractalresnet_unit1_broadcast_mul1", 
      "inputs": [[254, 0, 0], [467, 0, 0]]
    }, 
    {
      "op": "_copy", 
      "name": "fractal_resunet_cmtsk6_fractal_resunet_features0_identity2", 
      "inputs": [[468, 0, 0]]
    }, 
    {
      "op": "null", 
      "name": "fractal_resunet_cmtsk6_fractal_resunet_features0_downsample1_conv2dnormed0_conv0_weight", 
      "attrs": {
        "__dtype__": "0", 
        "__lr_mult__": "1.0", 
        "__shape__": "(128, 0, 3, 3)", 
        "__storage_type__": "0", 
        "__wd_mult__": "1.0"
      }, 
      "inputs": []
    }, 
    {
      "op": "Convolution", 
      "name": "fractal_resunet_cmtsk6_fractal_resunet_features0_downsample1_conv2dnormed0_conv0_fwd", 
      "attrs": {
        "dilate": "(1, 1)", 
        "kernel": "(3, 3)", 
        "layout": "NCHW", 
        "no_bias": "True", 
        "num_filter": "128", 
        "num_group": "1", 
        "pad": "(1, 1)", 
        "stride": "(2, 2)"
      }, 
      "inputs": [[469, 0, 0], [470, 0, 0]]
    }, 
    {
      "op": "null", 
      "name": "fractal_resunet_cmtsk6_fractal_resunet_features0_downsample1_conv2dnormed0_groupnorm0_gamma", 
      "attrs": {
        "__dtype__": "0", 
        "__init__": "ones", 
        "__lr_mult__": "1.0", 
        "__shape__": "(4,)", 
        "__storage_type__": "0", 
        "__wd_mult__": "1.0"
      }, 
      "inputs": []
    }, 
    {
      "op": "null", 
      "name": "fractal_resunet_cmtsk6_fractal_resunet_features0_downsample1_conv2dnormed0_groupnorm0_beta", 
      "attrs": {
        "__dtype__": "0", 
        "__init__": "zeros", 
        "__lr_mult__": "1.0", 
        "__shape__": "(4,)", 
        "__storage_type__": "0", 
        "__wd_mult__": "1.0"
      }, 
      "inputs": []
    }, 
    {
      "op": "GroupNorm", 
      "name": "fractal_resunet_cmtsk6_fractal_resunet_features0_downsample1_conv2dnormed0_groupnorm0_groupnorm0", 
      "attrs": {
        "eps": "1e-05", 
        "num_groups": "4"
      }, 
      "inputs": [[471, 0, 0], [472, 0, 0], [473, 0, 0]]
    }, 
    {
      "op": "null", 
      "name": "fractal_resunet_cmtsk6_fractal_resunet_features0_fractalresnet_unit2_resnet_v2_block0_groupnorm0_gamma", 
      "attrs": {
        "__dtype__": "0", 
        "__init__": "ones", 
        "__lr_mult__": "1.0", 
        "__shape__": "(4,)", 
        "__storage_type__": "0", 
        "__wd_mult__": "1.0"
      }, 
      "inputs": []
    }, 
    {
      "op": "null", 
      "name": "fractal_resunet_cmtsk6_fractal_resunet_features0_fractalresnet_unit2_resnet_v2_block0_groupnorm0_beta", 
      "attrs": {
        "__dtype__": "0", 
        "__init__": "zeros", 
        "__lr_mult__": "1.0", 
        "__shape__": "(4,)", 
        "__storage_type__": "0", 
        "__wd_mult__": "1.0"
      }, 
      "inputs": []
    }, 
    {
      "op": "GroupNorm", 
      "name": "fractal_resunet_cmtsk6_fractal_resunet_features0_fractalresnet_unit2_resnet_v2_block0_groupnorm0_groupnorm0", 
      "attrs": {
        "eps": "1e-05", 
        "num_groups": "4"
      }, 
      "inputs": [[474, 0, 0], [475, 0, 0], [476, 0, 0]]
    }, 
    {
      "op": "relu", 
      "name": "fractal_resunet_cmtsk6_fractal_resunet_features0_fractalresnet_unit2_resnet_v2_block0_relu0", 
      "inputs": [[477, 0, 0]]
    }, 
    {
      "op": "null", 
      "name": "fractal_resunet_cmtsk6_fractal_resunet_features0_fractalresnet_unit2_resnet_v2_block0_conv0_weight", 
      "attrs": {
        "__dtype__": "0", 
        "__lr_mult__": "1.0", 
        "__shape__": "(128, 0, 3, 3)", 
        "__storage_type__": "0", 
        "__wd_mult__": "1.0"
      }, 
      "inputs": []
    }, 
    {
      "op": "Convolution", 
      "name": "fractal_resunet_cmtsk6_fractal_resunet_features0_fractalresnet_unit2_resnet_v2_block0_conv0_fwd", 
      "attrs": {
        "dilate": "(1, 1)", 
        "kernel": "(3, 3)", 
        "layout": "NCHW", 
        "no_bias": "True", 
        "num_filter": "128", 
        "num_group": "16", 
        "pad": "(1, 1)", 
        "stride": "(1, 1)"
      }, 
      "inputs": [[478, 0, 0], [479, 0, 0]]
    }, 
    {
      "op": "null", 
      "name": "fractal_resunet_cmtsk6_fractal_resunet_features0_fractalresnet_unit2_resnet_v2_block0_groupnorm1_gamma", 
      "attrs": {
        "__dtype__": "0", 
        "__init__": "ones", 
        "__lr_mult__": "1.0", 
        "__shape__": "(4,)", 
        "__storage_type__": "0", 
        "__wd_mult__": "1.0"
      }, 
      "inputs": []
    }, 
    {
      "op": "null", 
      "name": "fractal_resunet_cmtsk6_fractal_resunet_features0_fractalresnet_unit2_resnet_v2_block0_groupnorm1_beta", 
      "attrs": {
        "__dtype__": "0", 
        "__init__": "zeros", 
        "__lr_mult__": "1.0", 
        "__shape__": "(4,)", 
        "__storage_type__": "0", 
        "__wd_mult__": "1.0"
      }, 
      "inputs": []
    }, 
    {
      "op": "GroupNorm", 
      "name": "fractal_resunet_cmtsk6_fractal_resunet_features0_fractalresnet_unit2_resnet_v2_block0_groupnorm1_groupnorm0", 
      "attrs": {
        "eps": "1e-05", 
        "num_groups": "4"
      }, 
      "inputs": [[480, 0, 0], [481, 0, 0], [482, 0, 0]]
    }, 
    {
      "op": "relu", 
      "name": "fractal_resunet_cmtsk6_fractal_resunet_features0_fractalresnet_unit2_resnet_v2_block0_relu1", 
      "inputs": [[483, 0, 0]]
    }, 
    {
      "op": "null", 
      "name": "fractal_resunet_cmtsk6_fractal_resunet_features0_fractalresnet_unit2_resnet_v2_block0_conv1_weight", 
      "attrs": {
        "__dtype__": "0", 
        "__lr_mult__": "1.0", 
        "__shape__": "(128, 0, 3, 3)", 
        "__storage_type__": "0", 
        "__wd_mult__": "1.0"
      }, 
      "inputs": []
    }, 
    {
      "op": "null", 
      "name": "fractal_resunet_cmtsk6_fractal_resunet_features0_fractalresnet_unit2_resnet_v2_block0_conv1_bias", 
      "attrs": {
        "__dtype__": "0", 
        "__init__": "zeros", 
        "__lr_mult__": "1.0", 
        "__shape__": "(128,)", 
        "__storage_type__": "0", 
        "__wd_mult__": "1.0"
      }, 
      "inputs": []
    }, 
    {
      "op": "Convolution", 
      "name": "fractal_resunet_cmtsk6_fractal_resunet_features0_fractalresnet_unit2_resnet_v2_block0_conv1_fwd", 
      "attrs": {
        "dilate": "(1, 1)", 
        "kernel": "(3, 3)", 
        "layout": "NCHW", 
        "no_bias": "False", 
        "num_filter": "128", 
        "num_group": "16", 
        "pad": "(1, 1)", 
        "stride": "(1, 1)"
      }, 
      "inputs": [[484, 0, 0], [485, 0, 0], [486, 0, 0]]
    }, 
    {
      "op": "elemwise_add", 
      "name": "fractal_resunet_cmtsk6_fractal_resunet_features0_fractalresnet_unit2__plus0", 
      "inputs": [[474, 0, 0], [487, 0, 0]]
    }, 
    {
      "op": "ones_like", 
      "name": "fractal_resunet_cmtsk6_fractal_resunet_features0_fractalresnet_unit2_ones_like0", 
      "inputs": [[487, 0, 0]]
    }, 
    {
      "op": "null", 
      "name": "fractal_resunet_cmtsk6_fractal_resunet_features0_fractalresnet_unit2_gamma", 
      "attrs": {
        "__dtype__": "0", 
        "__init__": "[\"zero\", {}]", 
        "__lr_mult__": "1.0", 
        "__shape__": "(1,)", 
        "__storage_type__": "0", 
        "__wd_mult__": "1.0"
      }, 
      "inputs": []
    }, 
    {
      "op": "null", 
      "name": "fractal_resunet_cmtsk6_fractal_resunet_features0_fractalresnet_unit2_ftattention2d0_relftattention2d0_conv2dnormed0_conv0_weight", 
      "attrs": {
        "__dtype__": "0", 
        "__lr_mult__": "1.0", 
        "__shape__": "(128, 0, 3, 3)", 
        "__storage_type__": "0", 
        "__wd_mult__": "1.0"
      }, 
      "inputs": []
    }, 
    {
      "op": "Convolution", 
      "name": "fractal_resunet_cmtsk6_fractal_resunet_features0_fractalresnet_unit2_ftattention2d0_relftattention2d0_conv2dnormed0_conv0_fwd", 
      "attrs": {
        "dilate": "(1, 1)", 
        "kernel": "(3, 3)", 
        "layout": "NCHW", 
        "no_bias": "True", 
        "num_filter": "128", 
        "num_group": "1", 
        "pad": "(1, 1)", 
        "stride": "(1, 1)"
      }, 
      "inputs": [[474, 0, 0], [491, 0, 0]]
    }, 
    {
      "op": "null", 
      "name": "fractal_resunet_cmtsk6_fractal_resunet_features0_fractalresnet_unit2_ftattention2d0_relftattention2d0_conv2dnormed0_groupnorm0_gamma", 
      "attrs": {
        "__dtype__": "0", 
        "__init__": "ones", 
        "__lr_mult__": "1.0", 
        "__shape__": "(4,)", 
        "__storage_type__": "0", 
        "__wd_mult__": "1.0"
      }, 
      "inputs": []
    }, 
    {
      "op": "null", 
      "name": "fractal_resunet_cmtsk6_fractal_resunet_features0_fractalresnet_unit2_ftattention2d0_relftattention2d0_conv2dnormed0_groupnorm0_beta", 
      "attrs": {
        "__dtype__": "0", 
        "__init__": "zeros", 
        "__lr_mult__": "1.0", 
        "__shape__": "(4,)", 
        "__storage_type__": "0", 
        "__wd_mult__": "1.0"
      }, 
      "inputs": []
    }, 
    {
      "op": "GroupNorm", 
      "name": "fractal_resunet_cmtsk6_fractal_resunet_features0_fractalresnet_unit2_ftattention2d0_relftattention2d0_conv2dnormed0_groupnorm0_groupnorm0", 
      "attrs": {
        "eps": "1e-05", 
        "num_groups": "4"
      }, 
      "inputs": [[492, 0, 0], [493, 0, 0], [494, 0, 0]]
    }, 
    {
      "op": "sigmoid", 
      "name": "fractal_resunet_cmtsk6_fractal_resunet_features0_fractalresnet_unit2_ftattention2d0_relftattention2d0_sigmoid0", 
      "inputs": [[495, 0, 0]]
    }, 
    {
      "op": "null", 
      "name": "fractal_resunet_cmtsk6_fractal_resunet_features0_fractalresnet_unit2_ftattention2d0_relftattention2d0_conv2dnormed1_conv0_weight", 
      "attrs": {
        "__dtype__": "0", 
        "__lr_mult__": "1.0", 
        "__shape__": "(128, 0, 3, 3)", 
        "__storage_type__": "0", 
        "__wd_mult__": "1.0"
      }, 
      "inputs": []
    }, 
    {
      "op": "Convolution", 
      "name": "fractal_resunet_cmtsk6_fractal_resunet_features0_fractalresnet_unit2_ftattention2d0_relftattention2d0_conv2dnormed1_conv0_fwd", 
      "attrs": {
        "dilate": "(1, 1)", 
        "kernel": "(3, 3)", 
        "layout": "NCHW", 
        "no_bias": "True", 
        "num_filter": "128", 
        "num_group": "1", 
        "pad": "(1, 1)", 
        "stride": "(1, 1)"
      }, 
      "inputs": [[474, 0, 0], [497, 0, 0]]
    }, 
    {
      "op": "null", 
      "name": "fractal_resunet_cmtsk6_fractal_resunet_features0_fractalresnet_unit2_ftattention2d0_relftattention2d0_conv2dnormed1_groupnorm0_gamma", 
      "attrs": {
        "__dtype__": "0", 
        "__init__": "ones", 
        "__lr_mult__": "1.0", 
        "__shape__": "(4,)", 
        "__storage_type__": "0", 
        "__wd_mult__": "1.0"
      }, 
      "inputs": []
    }, 
    {
      "op": "null", 
      "name": "fractal_resunet_cmtsk6_fractal_resunet_features0_fractalresnet_unit2_ftattention2d0_relftattention2d0_conv2dnormed1_groupnorm0_beta", 
      "attrs": {
        "__dtype__": "0", 
        "__init__": "zeros", 
        "__lr_mult__": "1.0", 
        "__shape__": "(4,)", 
        "__storage_type__": "0", 
        "__wd_mult__": "1.0"
      }, 
      "inputs": []
    }, 
    {
      "op": "GroupNorm", 
      "name": "fractal_resunet_cmtsk6_fractal_resunet_features0_fractalresnet_unit2_ftattention2d0_relftattention2d0_conv2dnormed1_groupnorm0_groupnorm0", 
      "attrs": {
        "eps": "1e-05", 
        "num_groups": "4"
      }, 
      "inputs": [[498, 0, 0], [499, 0, 0], [500, 0, 0]]
    }, 
    {
      "op": "sigmoid", 
      "name": "fractal_resunet_cmtsk6_fractal_resunet_features0_fractalresnet_unit2_ftattention2d0_relftattention2d0_sigmoid1", 
      "inputs": [[501, 0, 0]]
    }, 
    {
      "op": "broadcast_mul", 
      "name": "fractal_resunet_cmtsk6_fractal_resunet_features0_fractalresnet_unit2_ftattention2d0_relftattention2d0_ftanimoto0_broadcast_mul0", 
      "inputs": [[496, 0, 0], [502, 0, 0]]
    }, 
    {
      "op": "sum", 
      "name": "fractal_resunet_cmtsk6_fractal_resunet_features0_fractalresnet_unit2_ftattention2d0_relftattention2d0_ftanimoto0_sum0", 
      "attrs": {
        "axis": "[2, 3]", 
        "keepdims": "True"
      }, 
      "inputs": [[503, 0, 0]]
    }, 
    {
      "op": "_plus_scalar", 
      "name": "fractal_resunet_cmtsk6_fractal_resunet_features0_fractalresnet_unit2_ftattention2d0_relftattention2d0_ftanimoto0__plusscalar0", 
      "attrs": {"scalar": "1e-05"}, 
      "inputs": [[504, 0, 0]]
    }, 
    {
      "op": "broadcast_mul", 
      "name": "fractal_resunet_cmtsk6_fractal_resunet_features0_fractalresnet_unit2_ftattention2d0_relftattention2d0_ftanimoto0_broadcast_mul1", 
      "inputs": [[496, 0, 0], [496, 0, 0]]
    }, 
    {
      "op": "sum", 
      "name": "fractal_resunet_cmtsk6_fractal_resunet_features0_fractalresnet_unit2_ftattention2d0_relftattention2d0_ftanimoto0_sum1", 
      "attrs": {
        "axis": "[2, 3]", 
        "keepdims": "True"
      }, 
      "inputs": [[506, 0, 0]]
    }, 
    {
      "op": "broadcast_mul", 
      "name": "fractal_resunet_cmtsk6_fractal_resunet_features0_fractalresnet_unit2_ftattention2d0_relftattention2d0_ftanimoto0_broadcast_mul2", 
      "inputs": [[502, 0, 0], [502, 0, 0]]
    }, 
    {
      "op": "sum", 
      "name": "fractal_resunet_cmtsk6_fractal_resunet_features0_fractalresnet_unit2_ftattention2d0_relftattention2d0_ftanimoto0_sum2", 
      "attrs": {
        "axis": "[2, 3]", 
        "keepdims": "True"
      }, 
      "inputs": [[508, 0, 0]]
    }, 
    {
      "op": "elemwise_add", 
      "name": "fractal_resunet_cmtsk6_fractal_resunet_features0_fractalresnet_unit2_ftattention2d0_relftattention2d0_ftanimoto0__plus0", 
      "inputs": [[507, 0, 0], [509, 0, 0]]
    }, 
    {
      "op": "_mul_scalar", 
      "name": "fractal_resunet_cmtsk6_fractal_resunet_features0_fractalresnet_unit2_ftattention2d0_relftattention2d0_ftanimoto0__mulscalar0", 
      "attrs": {"scalar": "1.0"}, 
      "inputs": [[510, 0, 0]]
    }, 
    {
      "op": "_mul_scalar", 
      "name": "fractal_resunet_cmtsk6_fractal_resunet_features0_fractalresnet_unit2_ftattention2d0_relftattention2d0_ftanimoto0__mulscalar1", 
      "attrs": {"scalar": "-1.0"}, 
      "inputs": [[504, 0, 0]]
    }, 
    {
      "op": "broadcast_add", 
      "name": "fractal_resunet_cmtsk6_fractal_resunet_features0_fractalresnet_unit2_ftattention2d0_relftattention2d0_ftanimoto0_broadcast_add0", 
      "inputs": [[511, 0, 0], [512, 0, 0]]
    }, 
    {
      "op": "_plus_scalar", 
      "name": "fractal_resunet_cmtsk6_fractal_resunet_features0_fractalresnet_unit2_ftattention2d0_relftattention2d0_ftanimoto0__plusscalar1", 
      "attrs": {"scalar": "1e-05"}, 
      "inputs": [[513, 0, 0]]
    }, 
    {
      "op": "reciprocal", 
      "name": "fractal_resunet_cmtsk6_fractal_resunet_features0_fractalresnet_unit2_ftattention2d0_relftattention2d0_ftanimoto0_reciprocal0", 
      "inputs": [[514, 0, 0]]
    }, 
    {
      "op": "_plus_scalar", 
      "name": "fractal_resunet_cmtsk6_fractal_resunet_features0_fractalresnet_unit2_ftattention2d0_relftattention2d0_ftanimoto0__plusscalar2", 
      "attrs": {"scalar": "0.0"}, 
      "inputs": [[515, 0, 0]]
    }, 
    {
      "op": "elemwise_add", 
      "name": "fractal_resunet_cmtsk6_fractal_resunet_features0_fractalresnet_unit2_ftattention2d0_relftattention2d0_ftanimoto0__plus1", 
      "inputs": [[507, 0, 0], [509, 0, 0]]
    }, 
    {
      "op": "_mul_scalar", 
      "name": "fractal_resunet_cmtsk6_fractal_resunet_features0_fractalresnet_unit2_ftattention2d0_relftattention2d0_ftanimoto0__mulscalar2", 
      "attrs": {"scalar": "2.0"}, 
      "inputs": [[517, 0, 0]]
    }, 
    {
      "op": "_mul_scalar", 
      "name": "fractal_resunet_cmtsk6_fractal_resunet_features0_fractalresnet_unit2_ftattention2d0_relftattention2d0_ftanimoto0__mulscalar3", 
      "attrs": {"scalar": "-3.0"}, 
      "inputs": [[504, 0, 0]]
    }, 
    {
      "op": "broadcast_add", 
      "name": "fractal_resunet_cmtsk6_fractal_resunet_features0_fractalresnet_unit2_ftattention2d0_relftattention2d0_ftanimoto0_broadcast_add1", 
      "inputs": [[518, 0, 0], [519, 0, 0]]
    }, 
    {
      "op": "_plus_scalar", 
      "name": "fractal_resunet_cmtsk6_fractal_resunet_features0_fractalresnet_unit2_ftattention2d0_relftattention2d0_ftanimoto0__plusscalar3", 
      "attrs": {"scalar": "1e-05"}, 
      "inputs": [[520, 0, 0]]
    }, 
    {
      "op": "reciprocal", 
      "name": "fractal_resunet_cmtsk6_fractal_resunet_features0_fractalresnet_unit2_ftattention2d0_relftattention2d0_ftanimoto0_reciprocal1", 
      "inputs": [[521, 0, 0]]
    }, 
    {
      "op": "elemwise_add", 
      "name": "fractal_resunet_cmtsk6_fractal_resunet_features0_fractalresnet_unit2_ftattention2d0_relftattention2d0_ftanimoto0__plus2", 
      "inputs": [[516, 0, 0], [522, 0, 0]]
    }, 
    {
      "op": "elemwise_add", 
      "name": "fractal_resunet_cmtsk6_fractal_resunet_features0_fractalresnet_unit2_ftattention2d0_relftattention2d0_ftanimoto0__plus3", 
      "inputs": [[507, 0, 0], [509, 0, 0]]
    }, 
    {
      "op": "_mul_scalar", 
      "name": "fractal_resunet_cmtsk6_fractal_resunet_features0_fractalresnet_unit2_ftattention2d0_relftattention2d0_ftanimoto0__mulscalar4", 
      "attrs": {"scalar": "4.0"}, 
      "inputs": [[524, 0, 0]]
    }, 
    {
      "op": "_mul_scalar", 
      "name": "fractal_resunet_cmtsk6_fractal_resunet_features0_fractalresnet_unit2_ftattention2d0_relftattention2d0_ftanimoto0__mulscalar5", 
      "attrs": {"scalar": "-7.0"}, 
      "inputs": [[504, 0, 0]]
    }, 
    {
      "op": "broadcast_add", 
      "name": "fractal_resunet_cmtsk6_fractal_resunet_features0_fractalresnet_unit2_ftattention2d0_relftattention2d0_ftanimoto0_broadcast_add2", 
      "inputs": [[525, 0, 0], [526, 0, 0]]
    }, 
    {
      "op": "_plus_scalar", 
      "name": "fractal_resunet_cmtsk6_fractal_resunet_features0_fractalresnet_unit2_ftattention2d0_relftattention2d0_ftanimoto0__plusscalar4", 
      "attrs": {"scalar": "1e-05"}, 
      "inputs": [[527, 0, 0]]
    }, 
    {
      "op": "reciprocal", 
      "name": "fractal_resunet_cmtsk6_fractal_resunet_features0_fractalresnet_unit2_ftattention2d0_relftattention2d0_ftanimoto0_reciprocal2", 
      "inputs": [[528, 0, 0]]
    }, 
    {
      "op": "elemwise_add", 
      "name": "fractal_resunet_cmtsk6_fractal_resunet_features0_fractalresnet_unit2_ftattention2d0_relftattention2d0_ftanimoto0__plus4", 
      "inputs": [[523, 0, 0], [529, 0, 0]]
    }, 
    {
      "op": "elemwise_add", 
      "name": "fractal_resunet_cmtsk6_fractal_resunet_features0_fractalresnet_unit2_ftattention2d0_relftattention2d0_ftanimoto0__plus5", 
      "inputs": [[507, 0, 0], [509, 0, 0]]
    }, 
    {
      "op": "_mul_scalar", 
      "name": "fractal_resunet_cmtsk6_fractal_resunet_features0_fractalresnet_unit2_ftattention2d0_relftattention2d0_ftanimoto0__mulscalar6", 
      "attrs": {"scalar": "8.0"}, 
      "inputs": [[531, 0, 0]]
    }, 
    {
      "op": "_mul_scalar", 
      "name": "fractal_resunet_cmtsk6_fractal_resunet_features0_fractalresnet_unit2_ftattention2d0_relftattention2d0_ftanimoto0__mulscalar7", 
      "attrs": {"scalar": "-15.0"}, 
      "inputs": [[504, 0, 0]]
    }, 
    {
      "op": "broadcast_add", 
      "name": "fractal_resunet_cmtsk6_fractal_resunet_features0_fractalresnet_unit2_ftattention2d0_relftattention2d0_ftanimoto0_broadcast_add3", 
      "inputs": [[532, 0, 0], [533, 0, 0]]
    }, 
    {
      "op": "_plus_scalar", 
      "name": "fractal_resunet_cmtsk6_fractal_resunet_features0_fractalresnet_unit2_ftattention2d0_relftattention2d0_ftanimoto0__plusscalar5", 
      "attrs": {"scalar": "1e-05"}, 
      "inputs": [[534, 0, 0]]
    }, 
    {
      "op": "reciprocal", 
      "name": "fractal_resunet_cmtsk6_fractal_resunet_features0_fractalresnet_unit2_ftattention2d0_relftattention2d0_ftanimoto0_reciprocal3", 
      "inputs": [[535, 0, 0]]
    }, 
    {
      "op": "elemwise_add", 
      "name": "fractal_resunet_cmtsk6_fractal_resunet_features0_fractalresnet_unit2_ftattention2d0_relftattention2d0_ftanimoto0__plus6", 
      "inputs": [[530, 0, 0], [536, 0, 0]]
    }, 
    {
      "op": "elemwise_add", 
      "name": "fractal_resunet_cmtsk6_fractal_resunet_features0_fractalresnet_unit2_ftattention2d0_relftattention2d0_ftanimoto0__plus7", 
      "inputs": [[507, 0, 0], [509, 0, 0]]
    }, 
    {
      "op": "_mul_scalar", 
      "name": "fractal_resunet_cmtsk6_fractal_resunet_features0_fractalresnet_unit2_ftattention2d0_relftattention2d0_ftanimoto0__mulscalar8", 
      "attrs": {"scalar": "16.0"}, 
      "inputs": [[538, 0, 0]]
    }, 
    {
      "op": "_mul_scalar", 
      "name": "fractal_resunet_cmtsk6_fractal_resunet_features0_fractalresnet_unit2_ftattention2d0_relftattention2d0_ftanimoto0__mulscalar9", 
      "attrs": {"scalar": "-31.0"}, 
      "inputs": [[504, 0, 0]]
    }, 
    {
      "op": "broadcast_add", 
      "name": "fractal_resunet_cmtsk6_fractal_resunet_features0_fractalresnet_unit2_ftattention2d0_relftattention2d0_ftanimoto0_broadcast_add4", 
      "inputs": [[539, 0, 0], [540, 0, 0]]
    }, 
    {
      "op": "_plus_scalar", 
      "name": "fractal_resunet_cmtsk6_fractal_resunet_features0_fractalresnet_unit2_ftattention2d0_relftattention2d0_ftanimoto0__plusscalar6", 
      "attrs": {"scalar": "1e-05"}, 
      "inputs": [[541, 0, 0]]
    }, 
    {
      "op": "reciprocal", 
      "name": "fractal_resunet_cmtsk6_fractal_resunet_features0_fractalresnet_unit2_ftattention2d0_relftattention2d0_ftanimoto0_reciprocal4", 
      "inputs": [[542, 0, 0]]
    }, 
    {
      "op": "elemwise_add", 
      "name": "fractal_resunet_cmtsk6_fractal_resunet_features0_fractalresnet_unit2_ftattention2d0_relftattention2d0_ftanimoto0__plus8", 
      "inputs": [[537, 0, 0], [543, 0, 0]]
    }, 
    {
      "op": "broadcast_mul", 
      "name": "fractal_resunet_cmtsk6_fractal_resunet_features0_fractalresnet_unit2_ftattention2d0_relftattention2d0_ftanimoto0_broadcast_mul3", 
      "inputs": [[505, 0, 0], [544, 0, 0]]
    }, 
    {
      "op": "_mul_scalar", 
      "name": "fractal_resunet_cmtsk6_fractal_resunet_features0_fractalresnet_unit2_ftattention2d0_relftattention2d0_ftanimoto0__mulscalar10", 
      "attrs": {"scalar": "0.2"}, 
      "inputs": [[545, 0, 0]]
    }, 
    {
      "op": "_rminus_scalar", 
      "name": "fractal_resunet_cmtsk6_fractal_resunet_features0_fractalresnet_unit2_ftattention2d0_relftattention2d0_ftanimoto0__rminusscalar0", 
      "attrs": {"scalar": "1.0"}, 
      "inputs": [[496, 0, 0]]
    }, 
    {
      "op": "_rminus_scalar", 
      "name": "fractal_resunet_cmtsk6_fractal_resunet_features0_fractalresnet_unit2_ftattention2d0_relftattention2d0_ftanimoto0__rminusscalar1", 
      "attrs": {"scalar": "1.0"}, 
      "inputs": [[502, 0, 0]]
    }, 
    {
      "op": "broadcast_mul", 
      "name": "fractal_resunet_cmtsk6_fractal_resunet_features0_fractalresnet_unit2_ftattention2d0_relftattention2d0_ftanimoto0_broadcast_mul4", 
      "inputs": [[547, 0, 0], [548, 0, 0]]
    }, 
    {
      "op": "sum", 
      "name": "fractal_resunet_cmtsk6_fractal_resunet_features0_fractalresnet_unit2_ftattention2d0_relftattention2d0_ftanimoto0_sum3", 
      "attrs": {
        "axis": "[2, 3]", 
        "keepdims": "True"
      }, 
      "inputs": [[549, 0, 0]]
    }, 
    {
      "op": "_plus_scalar", 
      "name": "fractal_resunet_cmtsk6_fractal_resunet_features0_fractalresnet_unit2_ftattention2d0_relftattention2d0_ftanimoto0__plusscalar7", 
      "attrs": {"scalar": "1e-05"}, 
      "inputs": [[550, 0, 0]]
    }, 
    {
      "op": "broadcast_mul", 
      "name": "fractal_resunet_cmtsk6_fractal_resunet_features0_fractalresnet_unit2_ftattention2d0_relftattention2d0_ftanimoto0_broadcast_mul5", 
      "inputs": [[547, 0, 0], [547, 0, 0]]
    }, 
    {
      "op": "sum", 
      "name": "fractal_resunet_cmtsk6_fractal_resunet_features0_fractalresnet_unit2_ftattention2d0_relftattention2d0_ftanimoto0_sum4", 
      "attrs": {
        "axis": "[2, 3]", 
        "keepdims": "True"
      }, 
      "inputs": [[552, 0, 0]]
    }, 
    {
      "op": "broadcast_mul", 
      "name": "fractal_resunet_cmtsk6_fractal_resunet_features0_fractalresnet_unit2_ftattention2d0_relftattention2d0_ftanimoto0_broadcast_mul6", 
      "inputs": [[548, 0, 0], [548, 0, 0]]
    }, 
    {
      "op": "sum", 
      "name": "fractal_resunet_cmtsk6_fractal_resunet_features0_fractalresnet_unit2_ftattention2d0_relftattention2d0_ftanimoto0_sum5", 
      "attrs": {
        "axis": "[2, 3]", 
        "keepdims": "True"
      }, 
      "inputs": [[554, 0, 0]]
    }, 
    {
      "op": "elemwise_add", 
      "name": "fractal_resunet_cmtsk6_fractal_resunet_features0_fractalresnet_unit2_ftattention2d0_relftattention2d0_ftanimoto0__plus9", 
      "inputs": [[553, 0, 0], [555, 0, 0]]
    }, 
    {
      "op": "_mul_scalar", 
      "name": "fractal_resunet_cmtsk6_fractal_resunet_features0_fractalresnet_unit2_ftattention2d0_relftattention2d0_ftanimoto0__mulscalar11", 
      "attrs": {"scalar": "1.0"}, 
      "inputs": [[556, 0, 0]]
    }, 
    {
      "op": "_mul_scalar", 
      "name": "fractal_resunet_cmtsk6_fractal_resunet_features0_fractalresnet_unit2_ftattention2d0_relftattention2d0_ftanimoto0__mulscalar12", 
      "attrs": {"scalar": "-1.0"}, 
      "inputs": [[550, 0, 0]]
    }, 
    {
      "op": "broadcast_add", 
      "name": "fractal_resunet_cmtsk6_fractal_resunet_features0_fractalresnet_unit2_ftattention2d0_relftattention2d0_ftanimoto0_broadcast_add5", 
      "inputs": [[557, 0, 0], [558, 0, 0]]
    }, 
    {
      "op": "_plus_scalar", 
      "name": "fractal_resunet_cmtsk6_fractal_resunet_features0_fractalresnet_unit2_ftattention2d0_relftattention2d0_ftanimoto0__plusscalar8", 
      "attrs": {"scalar": "1e-05"}, 
      "inputs": [[559, 0, 0]]
    }, 
    {
      "op": "reciprocal", 
      "name": "fractal_resunet_cmtsk6_fractal_resunet_features0_fractalresnet_unit2_ftattention2d0_relftattention2d0_ftanimoto0_reciprocal5", 
      "inputs": [[560, 0, 0]]
    }, 
    {
      "op": "_plus_scalar", 
      "name": "fractal_resunet_cmtsk6_fractal_resunet_features0_fractalresnet_unit2_ftattention2d0_relftattention2d0_ftanimoto0__plusscalar9", 
      "attrs": {"scalar": "0.0"}, 
      "inputs": [[561, 0, 0]]
    }, 
    {
      "op": "elemwise_add", 
      "name": "fractal_resunet_cmtsk6_fractal_resunet_features0_fractalresnet_unit2_ftattention2d0_relftattention2d0_ftanimoto0__plus10", 
      "inputs": [[553, 0, 0], [555, 0, 0]]
    }, 
    {
      "op": "_mul_scalar", 
      "name": "fractal_resunet_cmtsk6_fractal_resunet_features0_fractalresnet_unit2_ftattention2d0_relftattention2d0_ftanimoto0__mulscalar13", 
      "attrs": {"scalar": "2.0"}, 
      "inputs": [[563, 0, 0]]
    }, 
    {
      "op": "_mul_scalar", 
      "name": "fractal_resunet_cmtsk6_fractal_resunet_features0_fractalresnet_unit2_ftattention2d0_relftattention2d0_ftanimoto0__mulscalar14", 
      "attrs": {"scalar": "-3.0"}, 
      "inputs": [[550, 0, 0]]
    }, 
    {
      "op": "broadcast_add", 
      "name": "fractal_resunet_cmtsk6_fractal_resunet_features0_fractalresnet_unit2_ftattention2d0_relftattention2d0_ftanimoto0_broadcast_add6", 
      "inputs": [[564, 0, 0], [565, 0, 0]]
    }, 
    {
      "op": "_plus_scalar", 
      "name": "fractal_resunet_cmtsk6_fractal_resunet_features0_fractalresnet_unit2_ftattention2d0_relftattention2d0_ftanimoto0__plusscalar10", 
      "attrs": {"scalar": "1e-05"}, 
      "inputs": [[566, 0, 0]]
    }, 
    {
      "op": "reciprocal", 
      "name": "fractal_resunet_cmtsk6_fractal_resunet_features0_fractalresnet_unit2_ftattention2d0_relftattention2d0_ftanimoto0_reciprocal6", 
      "inputs": [[567, 0, 0]]
    }, 
    {
      "op": "elemwise_add", 
      "name": "fractal_resunet_cmtsk6_fractal_resunet_features0_fractalresnet_unit2_ftattention2d0_relftattention2d0_ftanimoto0__plus11", 
      "inputs": [[562, 0, 0], [568, 0, 0]]
    }, 
    {
      "op": "elemwise_add", 
      "name": "fractal_resunet_cmtsk6_fractal_resunet_features0_fractalresnet_unit2_ftattention2d0_relftattention2d0_ftanimoto0__plus12", 
      "inputs": [[553, 0, 0], [555, 0, 0]]
    }, 
    {
      "op": "_mul_scalar", 
      "name": "fractal_resunet_cmtsk6_fractal_resunet_features0_fractalresnet_unit2_ftattention2d0_relftattention2d0_ftanimoto0__mulscalar15", 
      "attrs": {"scalar": "4.0"}, 
      "inputs": [[570, 0, 0]]
    }, 
    {
      "op": "_mul_scalar", 
      "name": "fractal_resunet_cmtsk6_fractal_resunet_features0_fractalresnet_unit2_ftattention2d0_relftattention2d0_ftanimoto0__mulscalar16", 
      "attrs": {"scalar": "-7.0"}, 
      "inputs": [[550, 0, 0]]
    }, 
    {
      "op": "broadcast_add", 
      "name": "fractal_resunet_cmtsk6_fractal_resunet_features0_fractalresnet_unit2_ftattention2d0_relftattention2d0_ftanimoto0_broadcast_add7", 
      "inputs": [[571, 0, 0], [572, 0, 0]]
    }, 
    {
      "op": "_plus_scalar", 
…
      "op": "GroupNorm", 
      "name": "fractal_resunet_cmtsk6_head_cmtsk_bc0_headsingle0_conv2dnormed0_groupnorm0_groupnorm0", 
      "attrs": {
        "eps": "1e-05", 
        "num_groups": "4"
      }, 
      "inputs": [[3048, 0, 0], [3049, 0, 0], [3050, 0, 0]]
    }, 
    {
      "op": "Activation", 
      "name": "fractal_resunet_cmtsk6_head_cmtsk_bc0_headsingle0_relu0_fwd", 
      "attrs": {"act_type": "relu"}, 
      "inputs": [[3051, 0, 0]]
    }, 
    {
      "op": "null", 
      "name": "fractal_resunet_cmtsk6_head_cmtsk_bc0_headsingle0_conv2dnormed1_conv0_weight", 
      "attrs": {
        "__dtype__": "0", 
        "__lr_mult__": "1.0", 
        "__shape__": "(32, 0, 3, 3)", 
        "__storage_type__": "0", 
        "__wd_mult__": "1.0"
      }, 
      "inputs": []
    }, 
    {
      "op": "Convolution", 
      "name": "fractal_resunet_cmtsk6_head_cmtsk_bc0_headsingle0_conv2dnormed1_conv0_fwd", 
      "attrs": {
        "dilate": "(1, 1)", 
        "kernel": "(3, 3)", 
        "layout": "NCHW", 
        "no_bias": "True", 
        "num_filter": "32", 
        "num_group": "1", 
        "pad": "(1, 1)", 
        "stride": "(1, 1)"
      }, 
      "inputs": [[3052, 0, 0], [3053, 0, 0]]
    }, 
    {
      "op": "null", 
      "name": "fractal_resunet_cmtsk6_head_cmtsk_bc0_headsingle0_conv2dnormed1_groupnorm0_gamma", 
      "attrs": {
        "__dtype__": "0", 
        "__init__": "ones", 
        "__lr_mult__": "1.0", 
        "__shape__": "(4,)", 
        "__storage_type__": "0", 
        "__wd_mult__": "1.0"
      }, 
      "inputs": []
    }, 
    {
      "op": "null", 
      "name": "fractal_resunet_cmtsk6_head_cmtsk_bc0_headsingle0_conv2dnormed1_groupnorm0_beta", 
      "attrs": {
        "__dtype__": "0", 
        "__init__": "zeros", 
        "__lr_mult__": "1.0", 
        "__shape__": "(4,)", 
        "__storage_type__": "0", 
        "__wd_mult__": "1.0"
      }, 
      "inputs": []
    }, 
    {
      "op": "GroupNorm", 
      "name": "fractal_resunet_cmtsk6_head_cmtsk_bc0_headsingle0_conv2dnormed1_groupnorm0_groupnorm0", 
      "attrs": {
        "eps": "1e-05", 
        "num_groups": "4"
      }, 
      "inputs": [[3054, 0, 0], [3055, 0, 0], [3056, 0, 0]]
    }, 
    {
      "op": "Activation", 
      "name": "fractal_resunet_cmtsk6_head_cmtsk_bc0_headsingle0_relu1_fwd", 
      "attrs": {"act_type": "relu"}, 
      "inputs": [[3057, 0, 0]]
    }, 
    {
      "op": "null", 
      "name": "fractal_resunet_cmtsk6_head_cmtsk_bc0_headsingle0_conv0_weight", 
      "attrs": {
        "__dtype__": "0", 
        "__lr_mult__": "1.0", 
        "__shape__": "(2, 0, 1, 1)", 
        "__storage_type__": "0", 
        "__wd_mult__": "1.0"
      }, 
      "inputs": []
    }, 
    {
      "op": "null", 
      "name": "fractal_resunet_cmtsk6_head_cmtsk_bc0_headsingle0_conv0_bias", 
      "attrs": {
        "__dtype__": "0", 
        "__init__": "zeros", 
        "__lr_mult__": "1.0", 
        "__shape__": "(2,)", 
        "__storage_type__": "0", 
        "__wd_mult__": "1.0"
      }, 
      "inputs": []
    }, 
    {
      "op": "Convolution", 
      "name": "fractal_resunet_cmtsk6_head_cmtsk_bc0_headsingle0_conv0_fwd", 
      "attrs": {
        "dilate": "(1, 1)", 
        "kernel": "(1, 1)", 
        "layout": "NCHW", 
        "no_bias": "False", 
        "num_filter": "2", 
        "num_group": "1", 
        "pad": "(0, 0)", 
        "stride": "(1, 1)"
      }, 
      "inputs": [[3058, 0, 0], [3059, 0, 0], [3060, 0, 0]]
    }, 
    {
      "op": "null", 
      "name": "fractal_resunet_cmtsk6_head_cmtsk_bc0_sigmoidcrisp0_gamma", 
      "attrs": {
        "__dtype__": "0", 
        "__init__": "[\"one\", {}]", 
        "__lr_mult__": "1.0", 
        "__shape__": "(1,)", 
        "__storage_type__": "0", 
        "__wd_mult__": "1.0"
      }, 
      "inputs": []
    }, 
    {
      "op": "sigmoid", 
      "name": "fractal_resunet_cmtsk6_head_cmtsk_bc0_sigmoidcrisp0_sigmoid0", 
      "inputs": [[3062, 0, 0]]
    }, 
    {
      "op": "_plus_scalar", 
      "name": "fractal_resunet_cmtsk6_head_cmtsk_bc0_sigmoidcrisp0__plusscalar0", 
      "attrs": {"scalar": "0.01"}, 
      "inputs": [[3063, 0, 0]]
    }, 
    {
      "op": "reciprocal", 
      "name": "fractal_resunet_cmtsk6_head_cmtsk_bc0_sigmoidcrisp0_reciprocal0", 
      "inputs": [[3064, 0, 0]]
    }, 
    {
      "op": "broadcast_mul", 
      "name": "fractal_resunet_cmtsk6_head_cmtsk_bc0_sigmoidcrisp0_broadcast_mul0", 
      "inputs": [[3061, 0, 0], [3065, 0, 0]]
    }, 
    {
      "op": "sigmoid", 
      "name": "fractal_resunet_cmtsk6_head_cmtsk_bc0_sigmoidcrisp0_sigmoid1", 
      "inputs": [[3066, 0, 0]]
    }, 
    {
      "op": "null", 
      "name": "fractal_resunet_cmtsk6_head_cmtsk_bc0_conv2dnormed0_conv0_weight", 
      "attrs": {
        "__dtype__": "0", 
        "__lr_mult__": "1.0", 
        "__shape__": "(32, 0, 1, 1)", 
        "__storage_type__": "0", 
        "__wd_mult__": "1.0"
      }, 
      "inputs": []
    }, 
    {
      "op": "Convolution", 
      "name": "fractal_resunet_cmtsk6_head_cmtsk_bc0_conv2dnormed0_conv0_fwd", 
      "attrs": {
        "dilate": "(1, 1)", 
        "kernel": "(1, 1)", 
        "layout": "NCHW", 
        "no_bias": "True", 
        "num_filter": "32", 
        "num_group": "1", 
        "pad": "(0, 0)", 
        "stride": "(1, 1)"
      }, 
      "inputs": [[3067, 0, 0], [3068, 0, 0]]
    }, 
    {
      "op": "null", 
      "name": "fractal_resunet_cmtsk6_head_cmtsk_bc0_conv2dnormed0_groupnorm0_gamma", 
      "attrs": {
        "__dtype__": "0", 
        "__init__": "ones", 
        "__lr_mult__": "1.0", 
        "__shape__": "(4,)", 
        "__storage_type__": "0", 
        "__wd_mult__": "1.0"
      }, 
      "inputs": []
    }, 
    {
      "op": "null", 
      "name": "fractal_resunet_cmtsk6_head_cmtsk_bc0_conv2dnormed0_groupnorm0_beta", 
      "attrs": {
        "__dtype__": "0", 
        "__init__": "zeros", 
        "__lr_mult__": "1.0", 
        "__shape__": "(4,)", 
        "__storage_type__": "0", 
        "__wd_mult__": "1.0"
      }, 
      "inputs": []
    }, 
    {
      "op": "GroupNorm", 
      "name": "fractal_resunet_cmtsk6_head_cmtsk_bc0_conv2dnormed0_groupnorm0_groupnorm0", 
      "attrs": {
        "eps": "1e-05", 
        "num_groups": "4"
      }, 
      "inputs": [[3069, 0, 0], [3070, 0, 0], [3071, 0, 0]]
    }, 
    {
      "op": "relu", 
      "name": "fractal_resunet_cmtsk6_head_cmtsk_bc0_relu2", 
      "inputs": [[3072, 0, 0]]
    }, 
    {
      "op": "Concat", 
      "name": "fractal_resunet_cmtsk6_head_cmtsk_bc0_concat2", 
      "attrs": {
        "dim": "1", 
        "num_args": "2"
      }, 
      "inputs": [[3073, 0, 0], [3045, 0, 0]]
    }, 
    {
      "op": "null", 
      "name": "fractal_resunet_cmtsk6_head_cmtsk_bc0_conv2dnormed2_conv0_weight", 
      "attrs": {
        "__dtype__": "0", 
        "__lr_mult__": "1.0", 
        "__shape__": "(32, 0, 1, 1)", 
        "__storage_type__": "0", 
        "__wd_mult__": "1.0"
      }, 
      "inputs": []
    }, 
    {
      "op": "Convolution", 
      "name": "fractal_resunet_cmtsk6_head_cmtsk_bc0_conv2dnormed2_conv0_fwd", 
      "attrs": {
        "dilate": "(1, 1)", 
        "kernel": "(1, 1)", 
        "layout": "NCHW", 
        "no_bias": "True", 
        "num_filter": "32", 
        "num_group": "1", 
        "pad": "(0, 0)", 
        "stride": "(1, 1)"
      }, 
      "inputs": [[3074, 0, 0], [3075, 0, 0]]
    }, 
    {
      "op": "null", 
      "name": "fractal_resunet_cmtsk6_head_cmtsk_bc0_conv2dnormed2_groupnorm0_gamma", 
      "attrs": {
        "__dtype__": "0", 
        "__init__": "ones", 
        "__lr_mult__": "1.0", 
        "__shape__": "(4,)", 
        "__storage_type__": "0", 
        "__wd_mult__": "1.0"
      }, 
      "inputs": []
    }, 
    {
      "op": "null", 
      "name": "fractal_resunet_cmtsk6_head_cmtsk_bc0_conv2dnormed2_groupnorm0_beta", 
      "attrs": {
        "__dtype__": "0", 
        "__init__": "zeros", 
        "__lr_mult__": "1.0", 
        "__shape__": "(4,)", 
        "__storage_type__": "0", 
        "__wd_mult__": "1.0"
      }, 
      "inputs": []
    }, 
    {
      "op": "GroupNorm", 
      "name": "fractal_resunet_cmtsk6_head_cmtsk_bc0_conv2dnormed2_groupnorm0_groupnorm0", 
      "attrs": {
        "eps": "1e-05", 
        "num_groups": "4"
      }, 
      "inputs": [[3076, 0, 0], [3077, 0, 0], [3078, 0, 0]]
    }, 
    {
      "op": "relu", 
      "name": "fractal_resunet_cmtsk6_head_cmtsk_bc0_relu3", 
      "inputs": [[3079, 0, 0]]
    }, 
    {
      "op": "Concat", 
      "name": "fractal_resunet_cmtsk6_head_cmtsk_bc0_concat3", 
      "attrs": {"num_args": "2"}, 
      "inputs": [[3080, 0, 0], [3023, 0, 0]]
    }, 
    {
      "op": "null", 
      "name": "fractal_resunet_cmtsk6_head_cmtsk_bc0_headsingle2_conv2dnormed0_conv0_weight", 
      "attrs": {
        "__dtype__": "0", 
        "__lr_mult__": "1.0", 
        "__shape__": "(32, 0, 3, 3)", 
        "__storage_type__": "0", 
        "__wd_mult__": "1.0"
      }, 
      "inputs": []
    }, 
    {
      "op": "Convolution", 
      "name": "fractal_resunet_cmtsk6_head_cmtsk_bc0_headsingle2_conv2dnormed0_conv0_fwd", 
      "attrs": {
        "dilate": "(1, 1)", 
        "kernel": "(3, 3)", 
        "layout": "NCHW", 
        "no_bias": "True", 
        "num_filter": "32", 
        "num_group": "1", 
        "pad": "(1, 1)", 
        "stride": "(1, 1)"
      }, 
      "inputs": [[3081, 0, 0], [3082, 0, 0]]
    }, 
    {
      "op": "null", 
      "name": "fractal_resunet_cmtsk6_head_cmtsk_bc0_headsingle2_conv2dnormed0_groupnorm0_gamma", 
      "attrs": {
        "__dtype__": "0", 
        "__init__": "ones", 
        "__lr_mult__": "1.0", 
        "__shape__": "(4,)", 
        "__storage_type__": "0", 
        "__wd_mult__": "1.0"
      }, 
      "inputs": []
    }, 
    {
      "op": "null", 
      "name": "fractal_resunet_cmtsk6_head_cmtsk_bc0_headsingle2_conv2dnormed0_groupnorm0_beta", 
      "attrs": {
        "__dtype__": "0", 
        "__init__": "zeros", 
        "__lr_mult__": "1.0", 
        "__shape__": "(4,)", 
        "__storage_type__": "0", 
        "__wd_mult__": "1.0"
      }, 
      "inputs": []
    }, 
    {
      "op": "GroupNorm", 
      "name": "fractal_resunet_cmtsk6_head_cmtsk_bc0_headsingle2_conv2dnormed0_groupnorm0_groupnorm0", 
      "attrs": {
        "eps": "1e-05", 
        "num_groups": "4"
      }, 
      "inputs": [[3083, 0, 0], [3084, 0, 0], [3085, 0, 0]]
    }, 
    {
      "op": "Activation", 
      "name": "fractal_resunet_cmtsk6_head_cmtsk_bc0_headsingle2_relu0_fwd", 
      "attrs": {"act_type": "relu"}, 
      "inputs": [[3086, 0, 0]]
    }, 
    {
      "op": "null", 
      "name": "fractal_resunet_cmtsk6_head_cmtsk_bc0_headsingle2_conv2dnormed1_conv0_weight", 
      "attrs": {
        "__dtype__": "0", 
        "__lr_mult__": "1.0", 
        "__shape__": "(32, 0, 3, 3)", 
        "__storage_type__": "0", 
        "__wd_mult__": "1.0"
      }, 
      "inputs": []
    }, 
    {
      "op": "Convolution", 
      "name": "fractal_resunet_cmtsk6_head_cmtsk_bc0_headsingle2_conv2dnormed1_conv0_fwd", 
      "attrs": {
        "dilate": "(1, 1)", 
        "kernel": "(3, 3)", 
        "layout": "NCHW", 
        "no_bias": "True", 
        "num_filter": "32", 
        "num_group": "1", 
        "pad": "(1, 1)", 
        "stride": "(1, 1)"
      }, 
      "inputs": [[3087, 0, 0], [3088, 0, 0]]
    }, 
    {
      "op": "null", 
      "name": "fractal_resunet_cmtsk6_head_cmtsk_bc0_headsingle2_conv2dnormed1_groupnorm0_gamma", 
      "attrs": {
        "__dtype__": "0", 
        "__init__": "ones", 
        "__lr_mult__": "1.0", 
        "__shape__": "(4,)", 
        "__storage_type__": "0", 
        "__wd_mult__": "1.0"
      }, 
      "inputs": []
    }, 
    {
      "op": "null", 
      "name": "fractal_resunet_cmtsk6_head_cmtsk_bc0_headsingle2_conv2dnormed1_groupnorm0_beta", 
      "attrs": {
        "__dtype__": "0", 
        "__init__": "zeros", 
        "__lr_mult__": "1.0", 
        "__shape__": "(4,)", 
        "__storage_type__": "0", 
        "__wd_mult__": "1.0"
      }, 
      "inputs": []
    }, 
    {
      "op": "GroupNorm", 
      "name": "fractal_resunet_cmtsk6_head_cmtsk_bc0_headsingle2_conv2dnormed1_groupnorm0_groupnorm0", 
      "attrs": {
        "eps": "1e-05", 
        "num_groups": "4"
      }, 
      "inputs": [[3089, 0, 0], [3090, 0, 0], [3091, 0, 0]]
    }, 
    {
      "op": "Activation", 
      "name": "fractal_resunet_cmtsk6_head_cmtsk_bc0_headsingle2_relu1_fwd", 
      "attrs": {"act_type": "relu"}, 
      "inputs": [[3092, 0, 0]]
    }, 
    {
      "op": "null", 
      "name": "fractal_resunet_cmtsk6_head_cmtsk_bc0_headsingle2_conv0_weight", 
      "attrs": {
        "__dtype__": "0", 
        "__lr_mult__": "1.0", 
        "__shape__": "(2, 0, 1, 1)", 
        "__storage_type__": "0", 
        "__wd_mult__": "1.0"
      }, 
      "inputs": []
    }, 
    {
      "op": "null", 
      "name": "fractal_resunet_cmtsk6_head_cmtsk_bc0_headsingle2_conv0_bias", 
      "attrs": {
        "__dtype__": "0", 
        "__init__": "zeros", 
        "__lr_mult__": "1.0", 
        "__shape__": "(2,)", 
        "__storage_type__": "0", 
        "__wd_mult__": "1.0"
      }, 
      "inputs": []
    }, 
    {
      "op": "Convolution", 
      "name": "fractal_resunet_cmtsk6_head_cmtsk_bc0_headsingle2_conv0_fwd", 
      "attrs": {
        "dilate": "(1, 1)", 
        "kernel": "(1, 1)", 
        "layout": "NCHW", 
        "no_bias": "False", 
        "num_filter": "2", 
        "num_group": "1", 
        "pad": "(0, 0)", 
        "stride": "(1, 1)"
      }, 
      "inputs": [[3093, 0, 0], [3094, 0, 0], [3095, 0, 0]]
    }, 
    {
      "op": "softmax", 
      "name": "fractal_resunet_cmtsk6_head_cmtsk_bc0_hybridlambda0_softmax0", 
      "attrs": {"axis": "1"}, 
      "inputs": [[3096, 0, 0]]
    }
  ], 
  "arg_nodes": [
    0, 
    1, 
    3, 
    4, 
    7, 
    8, 
    11, 
    13, 
    14, 
    17, 
    18, 
    22, 
    23, 
    25, 
    26, 
    29, 
    31, 
    32, 
    127, 
    129, 
    130, 
    229, 
    230, 
    236, 
    238, 
    239, 
    241, 
    242, 
    245, 
    247, 
    248, 
    251, 
    252, 
    256, 
    257, 
    259, 
    260, 
    263, 
    265, 
    266, 
    361, 
    363, 
    364, 
    463, 
    464, 
    470, 
    472, 
    473, 
    475, 
    476, 
    479, 
    481, 
    482, 
    485, 
    486, 
    490, 
    491, 
    493, 
    494, 
    497, 
    499, 
    500, 
    595, 
    597, 
    598, 
    697, 
    698, 
    704, 
    706, 
    707, 
    709, 
    710, 
    713, 
    715, 
    716, 
    719, 
    720, 
    724, 
    725, 
    727, 
    728, 
    731, 
    733, 
    734, 
    829, 
    831, 
    832, 
    931, 
    932, 
    938, 
    940, 
    941, 
    943, 
    944, 
    947, 
    949, 
    950, 
    953, 
    954, 
    958, 
    959, 
    961, 
    962, 
    965, 
    967, 
    968, 
    1063, 
    1065, 
    1066, 
    1165, 
    1166, 
    1174, 
    1176, 
    1177, 
    1197, 
    1199, 
    1200, 
    1280, 
    1282, 
    1283, 
    1603, 
    1605, 
    1606, 
    1609, 
    1611, 
    1612, 
    1616, 
    1618, 
    1619, 
    1623, 
    1625, 
    1626, 
    1628, 
    1629, 
    1632, 
    1634, 
    1635, 
    1638, 
    1639, 
    1643, 
    1644, 
    1646, 
    1647, 
    1650, 
    1652, 
    1653, 
    1748, 
    1750, 
    1751, 
    1850, 
    1851, 
    1857, 
    1859, 
    1860, 
    1864, 
    1866, 
    1867, 
    1869, 
    1870, 
    1873, 
    1875, 
    1876, 
    1879, 
    1880, 
    1884, 
    1885, 
    1887, 
    1888, 
    1891, 
    1893, 
    1894, 
    1989, 
    1991, 
    1992, 
    2091, 
    2092, 
    2098, 
    2100, 
    2101, 
    2105, 
    2107, 
    2108, 
    2110, 
    2111, 
    2114, 
    2116, 
    2117, 
    2120, 
    2121, 
    2125, 
    2126, 
    2128, 
    2129, 
    2132, 
    2134, 
    2135, 
    2230, 
    2232, 
    2233, 
    2332, 
    2333, 
    2339, 
    2341, 
    2342, 
    2346, 
    2348, 
    2349, 
    2351, 
    2352, 
    2355, 
    2357, 
    2358, 
    2361, 
    2362, 
    2366, 
    2367, 
    2369, 
    2370, 
    2373, 
    2375, 
    2376, 
    2471, 
    2473, 
    2474, 
    2573, 
    2574, 
    2583, 
    2585, 
    2586, 
    2606, 
    2608, 
    2609, 
    2689, 
    2691, 
    2692, 
    3012, 
    3014, 
    3015, 
    3018, 
    3020, 
    3021, 
    3024, 
    3026, 
    3027, 
    3030, 
    3032, 
    3033, 
    3036, 
    3037, 
    3040, 
    3042, 
    3043, 
    3047, 
    3049, 
    3050, 
    3053, 
    3055, 
    3056, 
    3059, 
    3060, 
    3062, 
    3068, 
    3070, 
    3071, 
    3075, 
    3077, 
    3078, 
    3082, 
    3084, 
    3085, 
    3088, 
    3090, 
    3091, 
    3094, 
    3095
  ], 
  "node_row_ptr": [
    0, 
    1, 
    2, 
    3, 
    4, 
    5, 
    8, 
    9, 
    10, 
    11, 
    14, 
    15, 
    16, 
    17, 
    18, 
    19, 
    22, 
    23, 
    24, 
    25, 
    26, 
    27, 
    28, 
    29, 
    30, 
    31, 
    32, 
    33, 
    36, 
    37, 
    38, 
    39, 
    40, 
    41, 
    44, 
    45, 
    46, 
    47, 
    48, 
    49, 
    50, 
    51, 
    52, 
    53, 
    54, 
    55, 
    56, 
    57, 
    58, 
    59, 
    60, 
    61, 
    62, 
    63, 
    64, 
    65, 
    66, 
    67, 
    68, 
    69, 
    70, 
    71, 
    72, 
    73, 
    74, 
    75, 
    76, 
    77, 
    78, 
    79, 
    80, 
    81, 
    82, 
    83, 
    84, 
    85, 
    86, 
    87, 
    88, 
    89, 
    90, 
    91, 
    92, 
    93, 
    94, 
    95, 
    96, 
    97, 
    98, 
    99, 
    100, 
    101, 
    102, 
    103, 
    104, 
    105, 
    106, 
    107, 
    108, 
    109, 
    110, 
    111, 
    112, 
    113, 
    114, 
    115, 
    116, 
    117, 
    118, 
    119, 
    120, 
    121, 
    122, 
    123, 
    124, 
    125, 
    126, 
    127, 
    128, 
    129, 
    130, 
    131, 
    132, 
    133, 
    134, 
    135, 
    136, 
    137, 
    138, 
    139, 
    140, 
    141, 
    144, 
    145, 
    146, 
    147, 
    148, 
    149, 
    150, 
    151, 
    152, 
    153, 
    154, 
    155, 
    156, 
    157, 
    158, 
    159, 
    160, 
    161, 
    162, 
    163, 
    164, 
    165, 
    166, 
    167, 
    168, 
    169, 
    170, 
    171, 
    172, 
    173, 
    174, 
    175, 
    176, 
    177, 
    178, 
    179, 
    180, 
    181, 
    182, 
    183, 
    184, 
    185, 
    186, 
    187, 
    188, 
    189, 
    190, 
    191, 
    192, 
    193, 
    194, 
    195, 
    196, 
    197, 
    198, 
    199, 
    200, 
    201, 
    202, 
    203, 
    204, 
    205, 
    206, 
    207, 
    208, 
    209, 
    210, 
    211, 
    212, 
    213, 
    214, 
    215, 
    216, 
    217, 
    218, 
    219, 
    220, 
    221, 
    222, 
    223, 
    224, 
    225, 
    226, 
    227, 
    228, 
    229, 
    230, 
    231, 
    232, 
    233, 
    234, 
    235, 
    236, 
    237, 
    238, 
    239, 
    240, 
    241, 
    242, 
    243, 
    246, 
    247, 
    248, 
    249, 
    250, 
    251, 
    252, 
    253, 
    254, 
    257, 
    258, 
    259, 
    262, 
    263, 
    264, 
    265, 
    266, 
    267, 
    270, 
    271, 
    272, 
    273, 
    274, 
    275, 
    276, 
    277, 
    278, 
    279, 
    280, 
    281, 
    284, 
    285, 
    286, 
    287, 
    288, 
    289, 
    292, 
    293, 
    294, 
    295, 
    296, 
    297, 
    298, 
    299, 
    300, 
    301, 
    302, 
    303, 
    304, 
    305, 
    306, 
    307, 
    308, 
    309, 
    310, 
    311, 
    312, 
    313, 
    314, 
    315, 
    316, 
    317, 
    318, 
    319, 
    320, 
    321, 
    322, 
    323, 
    324, 
    325, 
    326, 
    327, 
    328, 
    329, 
    330, 
    331, 
    332, 
    333, 
    334, 
    335, 
    336, 
    337, 
    338, 
    339, 
    340, 
    341, 
    342, 
    343, 
    344, 
    345, 
    346, 
    347, 
    348, 
    349, 
    350, 
    351, 
    352, 
    353, 
    354, 
    355, 
    356, 
    357, 
    358, 
    359, 
    360, 
    361, 
    362, 
    363, 
    364, 
    365, 
    366, 
    367, 
    368, 
    369, 
    370, 
    371, 
    372, 
    373, 
    374, 
    375, 
    376, 
    377, 
    378, 
    379, 
    380, 
    381, 
    382, 
    383, 
    384, 
    385, 
    386, 
    387, 
    388, 
    389, 
    392, 
    393, 
    394, 
    395, 
    396, 
    397, 
    398, 
    399, 
    400, 
    401, 
    402, 
    403, 
    404, 
    405, 
    406, 
    407, 
    408, 
    409, 
    410, 
    411, 
    412, 
    413, 
    414, 
    415, 
    416, 
    417, 
    418, 
    419, 
    420, 
    421, 
    422, 
    423, 
    424, 
    425, 
    426, 
    427, 
    428, 
    429, 
    430, 
    431, 
    432, 
    433, 
    434, 
    435, 
    436, 
    437, 
    438, 
    439, 
    440, 
    441, 
    442, 
    443, 
    444, 
    445, 
    446, 
    447, 
    448, 
    449, 
    450, 
    451, 
    452, 
    453, 
    454, 
    455, 
    456, 
    457, 
    458, 
    459, 
    460, 
    461, 
    462, 
    463, 
    464, 
    465, 
    466, 
    467, 
    468, 
    469, 
    470, 
    471, 
    472, 
    473, 
    474, 
    475, 
    476, 
    477, 
    478, 
    479, 
    480, 
    481, 
    482, 
    483, 
    484, 
    485, 
    486, 
    487, 
    488, 
    489, 
    490, 
    491, 
    494, 
    495, 
    496, 
    497, 
    498, 
    499, 
    500, 
    501, 
    502, 
    505, 
    506, 
    507, 
    510, 
    511, 
    512, 
    513, 
    514, 
    515, 
    518, 
    519, 
    520, 
    521, 
    522, 
    523, 
    524, 
    525, 
    526, 
    527, 
    528, 
    529, 
    532, 
    533, 
    534, 
    535, 
    536, 
    537, 
    540, 
    541, 
    542, 
    543, 
    544, 
    545, 
    546, 
    547, 
    548, 
    549, 
    550, 
    551, 
    552, 
    553, 
    554, 
    555, 
    556, 
    557, 
    558, 
    559, 
    560, 
    561, 
    562, 
    563, 
    564, 
    565, 
    566, 
    567, 
    568, 
    569, 
    570, 
    571, 
    572, 
    573, 
    574, 
    575, 
    576, 
    577, 
    578, 
    579, 
    580, 
    581, 
    582, 
    583, 
    584, 
    585, 
    586, 
    587, 
    588, 
    589, 
    590, 
    591, 
    592, 
    593, 
    594, 
    595, 
    596, 
    597, 
    598, 
    599, 
    600, 
    601, 
    602, 
    603, 
    604, 
    605, 
    606, 
    607, 
    608, 
    609, 
    610, 
    611, 
    612, 
    613, 
    614, 
    615, 
    616, 
    617, 
    618, 
    619, 
    620, 
    621, 
    622, 
    623, 
    624, 
    625, 
    626, 
    627, 
    628, 
    629, 
    630, 
    631, 
    632, 
    633, 
    634, 
    635, 
    636, 
    637, 
    640, 
    641, 
    642, 
    643, 
    644, 
    645, 
    646, 
    647, 
    648, 
    649, 
    650, 
    651, 
    652, 
    653, 
    654, 
    655, 
    656, 
    657, 
    658, 
    659, 
    660, 
    661, 
    662, 
    663, 
    664, 
    665, 
    666, 
    667, 
    668, 
    669, 
    670, 
    671, 
    672, 
    673, 
    674, 
    675, 
    676, 
    677, 
    678, 
    679, 
    680, 
    681, 
    682, 
    683, 
    684, 
    685, 
    686, 
    687, 
    688, 
    689, 
    690, 
    691, 
    692, 
    693, 
    694, 
    695, 
    696, 
    697, 
    698, 
    699, 
    700, 
    701, 
    702, 
    703, 
    704, 
    705, 
    706, 
    707, 
    708, 
    709, 
    710, 
    711, 
    712, 
    713, 
    714, 
    715, 
    716, 
    717, 
    718, 
    719, 
    720, 
    721, 
    722, 
    723, 
    724, 
    725, 
    726, 
    727, 
    728, 
    729, 
    730, 
    731, 
    732, 
    733, 
    734, 
    735, 
    736, 
    737, 
    738, 
    739, 
    742, 
    743, 
    744, 
    745, 
    746, 
    747, 
    748, 
    749, 
    750, 
    753, 
    754, 
    755, 
    758, 
    759, 
    760, 
    761, 
    762, 
    763, 
    766, 
    767, 
    768, 
    769, 
    770, 
    771, 
    772, 
    773, 
    774, 
    775, 
    776, 
    777, 
    780, 
    781, 
    782, 
    783, 
    784, 
    785, 
    788, 
    789, 
    790, 
    791, 
    792, 
    793, 
    794, 
    795, 
    796, 
    797, 
    798, 
    799, 
    800, 
    801, 
    802, 
    803, 
    804, 
    805, 
    806, 
    807, 
    808, 
    809, 
    810, 
    811, 
    812, 
    813, 
    814, 
    815, 
    816, 
    817, 
    818, 
    819, 
    820, 
    821, 
    822, 
    823, 
    824, 
    825, 
    826, 
    827, 
    828, 
    829, 
    830, 
    831, 
    832, 
    833, 
    834, 
    835, 
    836, 
    837, 
    838, 
    839, 
    840, 
    841, 
    842, 
    843, 
    844, 
    845, 
    846, 
    847, 
    848, 
    849, 
    850, 
    851, 
    852, 
    853, 
    854, 
    855, 
    856, 
    857, 
    858, 
    859, 
    860, 
    861, 
    862, 
    863, 
    864, 
    865, 
    866, 
    867, 
    868, 
    869, 
    870, 
    871, 
    872, 
    873, 
    874, 
    875, 
    876, 
    877, 
    878, 
    879, 
    880, 
    881, 
    882, 
    883, 
    884, 
    885, 
    888, 
    889, 
    890, 
    891, 
    892, 
    893, 
    894, 
    895, 
    896, 
    897, 
    898, 
    899, 
    900, 
    901, 
    902, 
    903, 
    904, 
    905, 
    906, 
    907, 
    908, 
    909, 
    910, 
    911, 
    912, 
    913, 
    914, 
    915, 
    916, 
    917, 
    918, 
    919, 
    920, 
    921, 
    922, 
    923, 
    924, 
    925, 
    926, 
    927, 
    928, 
    929, 
    930, 
    931, 
    932, 
    933, 
    934, 
    935, 
    936, 
    937, 
    938, 
    939, 
    940, 
    941, 
    942, 
    943, 
    944, 
    945, 
    946, 
    947, 
    948, 
    949, 
    950, 
    951, 
    952, 
    953, 
    954, 
    955, 
    956, 
    957, 
    958, 
    959, 
    960, 
    961, 
    962, 
    963, 
    964, 
    965, 
    966, 
    967, 
    968, 
    969, 
    970, 
    971, 
    972, 
    973, 
    974, 
    975, 
    976, 
    977, 
    978, 
    979, 
    980, 
    981, 
    982, 
    983, 
    984, 
    985, 
    986, 
    987, 
    990, 
    991, 
    992, 
    993, 
    994, 
    995, 
    996, 
    997, 
    998, 
    1001, 
    1002, 
    1003, 
    1006, 
    1007, 
    1008, 
    1009, 
    1010, 
    1011, 
    1014, 
    1015, 
    1016, 
    1017, 
    1018, 
    1019, 
    1020, 
    1021, 
    1022, 
    1023, 
    1024, 
    1025, 
    1028, 
    1029, 
    1030, 
    1031, 
    1032, 
    1033, 
    1036, 
    1037, 
    1038, 
    1039, 
    1040, 
    1041, 
    1042, 
    1043, 
    1044, 
    1045, 
    1046, 
    1047, 
    1048, 
    1049, 
    1050, 
    1051, 
    1052, 
    1053, 
    1054, 
    1055, 
    1056, 
    1057, 
    1058, 
    1059, 
    1060, 
    1061, 
    1062, 
    1063, 
    1064, 
    1065, 
    1066, 
    1067, 
    1068, 
    1069, 
    1070, 
    1071, 
    1072, 
    1073, 
    1074, 
    1075, 
    1076, 
    1077, 
    1078, 
    1079, 
    1080, 
    1081, 
    1082, 
    1083, 
    1084, 
    1085, 
    1086, 
    1087, 
    1088, 
    1089, 
    1090, 
    1091, 
    1092, 
    1093, 
    1094, 
    1095, 
    1096, 
    1097, 
    1098, 
    1099, 
    1100, 
    1101, 
    1102, 
    1103, 
    1104, 
    1105, 
    1106, 
    1107, 
    1108, 
    1109, 
    1110, 
    1111, 
    1112, 
    1113, 
    1114, 
    1115, 
    1116, 
    1117, 
    1118, 
    1119, 
    1120, 
    1121, 
    1122, 
    1123, 
    1124, 
    1125, 
    1126, 
    1127, 
    1128, 
    1129, 
    1130, 
    1131, 
    1132, 
    1133, 
    1136, 
    1137, 
    1138, 
    1139, 
    1140, 
    1141, 
    1142, 
    1143, 
    1144, 
    1145, 
    1146, 
    1147, 
    1148, 
    1149, 
    1150, 
    1151, 
    1152, 
    1153, 
    1154, 
    1155, 
    1156, 
    1157, 
    1158, 
    1159, 
    1160, 
    1161, 
    1162, 
    1163, 
    1164, 
    1165, 
    1166, 
    1167, 
    1168, 
    1169, 
    1170, 
    1171, 
    1172, 
    1173, 
    1174, 
    1175, 
    1176, 
    1177, 
    1178, 
    1179, 
    1180, 
    1181, 
    1182, 
    1183, 
    1184, 
    1185, 
    1186, 
    1187, 
    1188, 
    1189, 
    1190, 
    1191, 
    1192, 
    1193, 
    1194, 
    1195, 
    1196, 
    1197, 
    1198, 
    1199, 
    1200, 
    1201, 
    1202, 
    1203, 
    1204, 
    1205, 
    1206, 
    1207, 
    1208, 
    1209, 
    1210, 
    1211, 
    1212, 
    1213, 
    1214, 
    1215, 
    1216, 
    1217, 
    1218, 
    1219, 
    1220, 
    1221, 
    1222, 
    1223, 
    1224, 
    1225, 
    1226, 
    1227, 
    1228, 
    1229, 
    1230, 
    1231, 
    1232, 
    1233, 
    1234, 
    1235, 
    1238, 
    1239, 
    1240, 
    1241, 
    1242, 
    1243, 
    1244, 
    1245, 
    1246, 
    1247, 
    1248, 
    1251, 
    1253, 
    1255, 
    1256, 
    1257, 
    1258, 
    1259, 
    1260, 
    1261, 
    1262, 
    1264, 
    1265, 
    1266, 
    1267, 
    1268, 
    1269, 
    1270, 
    1271, 
    1272, 
    1273, 
    1274, 
    1275, 
    1276, 
    1279, 
    1281, 
    1283, 
    1285, 
    1287, 
    1288, 
    1289, 
    1290, 
    1291, 
    1292, 
    1293, 
    1294, 
    1296, 
    1297, 
    1298, 
    1299, 
    1300, 
    1301, 
    1302, 
    1303, 
    1304, 
    1306, 
    1308, 
    1309, 
    1310, 
    1311, 
    1312, 
    1313, 
    1314, 
    1315, 
    1317, 
    1318, 
    1319, 
    1320, 
    1321, 
    1322, 
    1323, 
    1324, 
    1325, 
    1326, 
    1328, 
    1330, 
    1332, 
    1333, 
    1334, 
    1335, 
    1336, 
    1337, 
    1338, 
    1339, 
    1341, 
    1342, 
    1343, 
    1344, 
    1345, 
    1346, 
    1347, 
    1348, 
    1349, 
    1351, 
    1353, 
    1354, 
    1355, 
    1356, 
    1357, 
    1358, 
    1359, 
    1360, 
    1362, 
    1363, 
    1364, 
    1365, 
    1366, 
    1367, 
    1368, 
    1369, 
    1370, 
    1371, 
    1372, 
    1373, 
    1374, 
    1375, 
    1376, 
    1379, 
    1381, 
    1383, 
    1385, 
    1387, 
    1389, 
    1391, 
    1392, 
    1393, 
    1394, 
    1395, 
    1396, 
    1397, 
    1398, 
    1400, 
    1401, 
    1402, 
    1403, 
    1404, 
    1405, 
    1406, 
    1407, 
    1408, 
    1410, 
    1412, 
    1413, 
    1414, 
    1415, 
    1416, 
    1417, 
    1418, 
    1419, 
    1421, 
    1422, 
    1423, 
    1424, 
    1425, 
    1426, 
    1427, 
    1428, 
    1429, 
    1430, 
    1432, 
    1434, 
    1436, 
    1437, 
    1438, 
    1439, 
    1440, 
    1441, 
    1442, 
    1443, 
    1445, 
    1446, 
    1447, 
    1448, 
    1449, 
    1450, 
    1451, 
    1452, 
    1453, 
    1455, 
    1457, 
    1458, 
    1459, 
    1460, 
    1461, 
    1462, 
    1463, 
    1464, 
    1466, 
    1467, 
    1468, 
    1469, 
    1470, 
    1471, 
    1472, 
    1473, 
    1474, 
    1475, 
    1476, 
    1478, 
    1480, 
    1482, 
    1484, 
    1485, 
    1486, 
    1487, 
    1488, 
    1489, 
    1490, 
    1491, 
    1493, 
    1494, 
    1495, 
    1496, 
    1497, 
    1498, 
    1499, 
    1500, 
    1501, 
    1503, 
    1505, 
    1506, 
    1507, 
    1508, 
    1509, 
    1510, 
    1511, 
    1512, 
    1514, 
    1515, 
    1516, 
    1517, 
    1518, 
    1519, 
    1520, 
    1521, 
    1522, 
    1523, 
    1525, 
    1527, 
    1529, 
    1530, 
    1531, 
    1532, 
    1533, 
    1534, 
    1535, 
    1536, 
    1538, 
    1539, 
    1540, 
    1541, 
    1542, 
    1543, 
    1544, 
    1545, 
    1546, 
    1548, 
    1550, 
    1551, 
    1552, 
    1553, 
    1554, 
    1555, 
    1556, 
    1557, 
    1559, 
    1560, 
    1561, 
    1562, 
    1563, 
    1564, 
    1565, 
    1566, 
    1567, 
    1568, 
    1569, 
    1570, 
    1572, 
    1574, 
    1576, 
    1578, 
    1580, 
    1581, 
    1582, 
    1583, 
    1584, 
    1585, 
    1586, 
    1587, 
    1589, 
    1590, 
    1591, 
    1592, 
    1593, 
    1594, 
    1595, 
    1596, 
    1597, 
    1599, 
    1601, 
    1602, 
    1603, 
    1604, 
    1605, 
    1606, 
    1607, 
    1608, 
    1610, 
    1611, 
    1612, 
    1613, 
    1614, 
    1615, 
    1616, 
    1617, 
    1618, 
    1619, 
    1621, 
    1623, 
    1625, 
    1626, 
    1627, 
    1628, 
    1629, 
    1630, 
    1631, 
    1632, 
    1634, 
    1635, 
    1636, 
    1637, 
    1638, 
    1639, 
    1640, 
    1641, 
    1642, 
    1644, 
    1646, 
    1647, 
    1648, 
    1649, 
    1650, 
    1651, 
    1652, 
    1653, 
    1655, 
    1656, 
    1657, 
    1658, 
    1659, 
    1660, 
    1661, 
    1662, 
    1663, 
    1664, 
    1665, 
    1667, 
    1669, 
    1671, 
    1673, 
    1674, 
    1675, 
    1676, 
    1677, 
    1678, 
    1679, 
    1680, 
    1682, 
    1683, 
    1684, 
    1685, 
    1686, 
    1687, 
    1688, 
    1689, 
    1690, 
    1692, 
    1694, 
    1695, 
    1696, 
    1697, 
    1698, 
    1699, 
    1700, 
    1701, 
    1703, 
    1704, 
    1705, 
    1706, 
    1707, 
    1708, 
    1709, 
    1710, 
    1711, 
    1712, 
    1714, 
    1716, 
    1718, 
    1719, 
    1720, 
    1721, 
    1722, 
    1723, 
    1724, 
    1725, 
    1727, 
    1728, 
    1729, 
    1730, 
    1731, 
    1732, 
    1733, 
    1734, 
    1735, 
    1737, 
    1739, 
    1740, 
    1741, 
    1742, 
    1743, 
    1744, 
    1745, 
    1746, 
    1748, 
    1749, 
    1750, 
    1751, 
    1752, 
    1753, 
    1754, 
    1755, 
    1756, 
    1757, 
    1758, 
    1759, 
    1760, 
    1761, 
    1762, 
    1763, 
    1764, 
    1767, 
    1768, 
    1769, 
    1770, 
    1771, 
    1772, 
    1775, 
    1776, 
    1777, 
    1778, 
    1779, 
    1780, 
    1781, 
    1784, 
    1785, 
    1786, 
    1787, 
    1788, 
    1789, 
    1790, 
    1793, 
    1794, 
    1795, 
    1798, 
    1799, 
    1800, 
    1801, 
    1802, 
    1803, 
    1806, 
    1807, 
    1808, 
    1809, 
    1810, 
    1811, 
    1812, 
    1813, 
    1814, 
    1815, 
    1816, 
    1817, 
    1820, 
    1821, 
    1822, 
    1823, 
    1824, 
    1825, 
    1828, 
    1829, 
    1830, 
    1831, 
    1832, 
    1833, 
    1834, 
    1835, 
    1836, 
    1837, 
    1838, 
    1839, 
    1840, 
    1841, 
    1842, 
    1843, 
    1844, 
    1845, 
    1846, 
    1847, 
    1848, 
    1849, 
    1850, 
    1851, 
    1852, 
    1853, 
    1854, 
    1855, 
    1856, 
    1857, 
    1858, 
    1859, 
    1860, 
    1861, 
    1862, 
    1863, 
    1864, 
    1865, 
    1866, 
    1867, 
    1868, 
    1869, 
    1870, 
    1871, 
    1872, 
    1873, 
    1874, 
    1875, 
    1876, 
    1877, 
    1878, 
    1879, 
    1880, 
    1881, 
    1882, 
    1883, 
    1884, 
    1885, 
    1886, 
    1887, 
    1888, 
    1889, 
    1890, 
    1891, 
    1892, 
    1893, 
    1894, 
    1895, 
    1896, 
    1897, 
    1898, 
    1899, 
    1900, 
    1901, 
    1902, 
    1903, 
    1904, 
    1905, 
    1906, 
    1907, 
    1908, 
    1909, 
    1910, 
    1911, 
    1912, 
    1913, 
    1914, 
    1915, 
    1916, 
    1917, 
    1918, 
    1919, 
    1920, 
    1921, 
    1922, 
    1923, 
    1924, 
    1925, 
    1928, 
    1929, 
    1930, 
    1931, 
    1932, 
    1933, 
    1934, 
    1935, 
    1936, 
    1937, 
    1938, 
    1939, 
    1940, 
    1941, 
    1942, 
    1943, 
    1944, 
    1945, 
    1946, 
    1947, 
    1948, 
    1949, 
    1950, 
    1951, 
    1952, 
    1953, 
    1954, 
    1955, 
    1956, 
    1957, 
    1958, 
    1959, 
    1960, 
    1961, 
    1962, 
    1963, 
    1964, 
    1965, 
    1966, 
    1967, 
    1968, 
    1969, 
    1970, 
    1971, 
    1972, 
    1973, 
    1974, 
    1975, 
    1976, 
    1977, 
    1978, 
    1979, 
    1980, 
    1981, 
    1982, 
    1983, 
    1984, 
    1985, 
    1986, 
    1987, 
    1988, 
    1989, 
    1990, 
    1991, 
    1992, 
    1993, 
    1994, 
    1995, 
    1996, 
    1997, 
    1998, 
    1999, 
    2000, 
    2001, 
    2002, 
    2003, 
    2004, 
    2005, 
    2006, 
    2007, 
    2008, 
    2009, 
    2010, 
    2011, 
    2012, 
    2013, 
    2014, 
    2015, 
    2016, 
    2017, 
    2018, 
    2019, 
    2020, 
    2021, 
    2022, 
    2023, 
    2024, 
    2025, 
    2026, 
    2027, 
    2030, 
    2031, 
    2032, 
    2033, 
    2034, 
    2035, 
    2036, 
    2037, 
    2038, 
    2041, 
    2042, 
    2043, 
    2044, 
    2045, 
    2046, 
    2047, 
    2050, 
    2051, 
    2052, 
    2055, 
    2056, 
    2057, 
    2058, 
    2059, 
    2060, 
    2063, 
    2064, 
    2065, 
    2066, 
    2067, 
    2068, 
    2069, 
    2070, 
    2071, 
    2072, 
    2073, 
    2074, 
    2077, 
    2078, 
    2079, 
    2080, 
    2081, 
    2082, 
    2085, 
    2086, 
    2087, 
    2088, 
    2089, 
    2090, 
    2091, 
    2092, 
    2093, 
    2094, 
    2095, 
    2096, 
    2097, 
    2098, 
    2099, 
    2100, 
    2101, 
    2102, 
    2103, 
    2104, 
    2105, 
    2106, 
    2107, 
    2108, 
    2109, 
    2110, 
    2111, 
    2112, 
    2113, 
    2114, 
    2115, 
    2116, 
    2117, 
    2118, 
    2119, 
    2120, 
    2121, 
    2122, 
    2123, 
    2124, 
    2125, 
    2126, 
    2127, 
    2128, 
    2129, 
    2130, 
    2131, 
    2132, 
    2133, 
    2134, 
    2135, 
    2136, 
    2137, 
    2138, 
    2139, 
    2140, 
    2141, 
    2142, 
    2143, 
    2144, 
    2145, 
    2146, 
    2147, 
    2148, 
    2149, 
    2150, 
    2151, 
    2152, 
    2153, 
    2154, 
    2155, 
    2156, 
    2157, 
    2158, 
    2159, 
    2160, 
    2161, 
    2162, 
    2163, 
    2164, 
    2165, 
    2166, 
    2167, 
    2168, 
    2169, 
    2170, 
    2171, 
    2172, 
    2173, 
    2174, 
    2175, 
    2176, 
    2177, 
    2178, 
    2179, 
    2180, 
    2181, 
    2182, 
    2185, 
    2186, 
    2187, 
    2188, 
    2189, 
    2190, 
    2191, 
    2192, 
    2193, 
    2194, 
    2195, 
    2196, 
    2197, 
    2198, 
    2199, 
    2200, 
    2201, 
    2202, 
    2203, 
    2204, 
    2205, 
    2206, 
    2207, 
    2208, 
    2209, 
    2210, 
    2211, 
    2212, 
    2213, 
    2214, 
    2215, 
    2216, 
    2217, 
    2218, 
    2219, 
    2220, 
    2221, 
    2222, 
    2223, 
    2224, 
    2225, 
    2226, 
    2227, 
    2228, 
    2229, 
    2230, 
    2231, 
    2232, 
    2233, 
    2234, 
    2235, 
    2236, 
    2237, 
    2238, 
    2239, 
    2240, 
    2241, 
    2242, 
    2243, 
    2244, 
    2245, 
    2246, 
    2247, 
    2248, 
    2249, 
    2250, 
    2251, 
    2252, 
    2253, 
    2254, 
    2255, 
    2256, 
    2257, 
    2258, 
    2259, 
    2260, 
    2261, 
    2262, 
    2263, 
    2264, 
    2265, 
    2266, 
    2267, 
    2268, 
    2269, 
    2270, 
    2271, 
    2272, 
    2273, 
    2274, 
    2275, 
    2276, 
    2277, 
    2278, 
    2279, 
    2280, 
    2281, 
    2282, 
    2283, 
    2284, 
    2287, 
    2288, 
    2289, 
    2290, 
    2291, 
    2292, 
    2293, 
    2294, 
    2295, 
    2298, 
    2299, 
    2300, 
    2301, 
    2302, 
    2303, 
    2304, 
    2307, 
    2308, 
    2309, 
    2312, 
    2313, 
    2314, 
    2315, 
    2316, 
    2317, 
    2320, 
    2321, 
    2322, 
    2323, 
    2324, 
    2325, 
    2326, 
    2327, 
    2328, 
    2329, 
    2330, 
    2331, 
    2334, 
    2335, 
    2336, 
    2337, 
    2338, 
    2339, 
    2342, 
    2343, 
    2344, 
    2345, 
    2346, 
    2347, 
    2348, 
    2349, 
    2350, 
    2351, 
    2352, 
    2353, 
    2354, 
    2355, 
    2356, 
    2357, 
    2358, 
    2359, 
    2360, 
    2361, 
    2362, 
    2363, 
    2364, 
    2365, 
    2366, 
    2367, 
    2368, 
    2369, 
    2370, 
    2371, 
    2372, 
    2373, 
    2374, 
    2375, 
    2376, 
    2377, 
    2378, 
    2379, 
    2380, 
    2381, 
    2382, 
    2383, 
    2384, 
    2385, 
    2386, 
    2387, 
    2388, 
    2389, 
    2390, 
    2391, 
    2392, 
    2393, 
    2394, 
    2395, 
    2396, 
    2397, 
    2398, 
    2399, 
    2400, 
    2401, 
    2402, 
    2403, 
    2404, 
    2405, 
    2406, 
    2407, 
    2408, 
    2409, 
    2410, 
    2411, 
    2412, 
    2413, 
    2414, 
    2415, 
    2416, 
    2417, 
    2418, 
    2419, 
    2420, 
    2421, 
    2422, 
    2423, 
    2424, 
    2425, 
    2426, 
    2427, 
    2428, 
    2429, 
    2430, 
    2431, 
    2432, 
    2433, 
    2434, 
    2435, 
    2436, 
    2437, 
    2438, 
    2439, 
    2442, 
    2443, 
    2444, 
    2445, 
    2446, 
    2447, 
    2448, 
    2449, 
    2450, 
    2451, 
    2452, 
    2453, 
    2454, 
    2455, 
    2456, 
    2457, 
    2458, 
    2459, 
    2460, 
    2461, 
    2462, 
    2463, 
    2464, 
    2465, 
    2466, 
    2467, 
    2468, 
    2469, 
    2470, 
    2471, 
    2472, 
    2473, 
    2474, 
    2475, 
    2476, 
    2477, 
    2478, 
    2479, 
    2480, 
    2481, 
    2482, 
    2483, 
    2484, 
    2485, 
    2486, 
    2487, 
    2488, 
    2489, 
    2490, 
    2491, 
    2492, 
    2493, 
    2494, 
    2495, 
    2496, 
    2497, 
    2498, 
    2499, 
    2500, 
    2501, 
    2502, 
    2503, 
    2504, 
    2505, 
    2506, 
    2507, 
    2508, 
    2509, 
    2510, 
    2511, 
    2512, 
    2513, 
    2514, 
    2515, 
    2516, 
    2517, 
    2518, 
    2519, 
    2520, 
    2521, 
    2522, 
    2523, 
    2524, 
    2525, 
    2526, 
    2527, 
    2528, 
    2529, 
    2530, 
    2531, 
    2532, 
    2533, 
    2534, 
    2535, 
    2536, 
    2537, 
    2538, 
    2539, 
    2540, 
    2541, 
    2544, 
    2545, 
    2546, 
    2547, 
    2548, 
    2549, 
    2550, 
    2551, 
    2552, 
    2555, 
    2556, 
    2557, 
    2558, 
    2559, 
    2560, 
    2561, 
    2564, 
    2565, 
    2566, 
    2569, 
    2570, 
    2571, 
    2572, 
    2573, 
    2574, 
    2577, 
    2578, 
    2579, 
    2580, 
    2581, 
    2582, 
    2583, 
    2584, 
    2585, 
    2586, 
    2587, 
    2588, 
    2591, 
    2592, 
    2593, 
    2594, 
    2595, 
    2596, 
    2599, 
    2600, 
    2601, 
    2602, 
    2603, 
    2604, 
    2605, 
    2606, 
    2607, 
    2608, 
    2609, 
    2610, 
    2611, 
    2612, 
    2613, 
    2614, 
    2615, 
    2616, 
    2617, 
    2618, 
    2619, 
    2620, 
    2621, 
    2622, 
    2623, 
    2624, 
    2625, 
    2626, 
    2627, 
    2628, 
    2629, 
    2630, 
    2631, 
    2632, 
    2633, 
    2634, 
    2635, 
    2636, 
    2637, 
    2638, 
    2639, 
    2640, 
    2641, 
    2642, 
    2643, 
    2644, 
    2645, 
    2646, 
    2647, 
    2648, 
    2649, 
    2650, 
    2651, 
    2652, 
    2653, 
    2654, 
    2655, 
    2656, 
    2657, 
    2658, 
    2659, 
    2660, 
    2661, 
    2662, 
    2663, 
    2664, 
    2665, 
    2666, 
    2667, 
    2668, 
    2669, 
    2670, 
    2671, 
    2672, 
    2673, 
    2674, 
    2675, 
    2676, 
    2677, 
    2678, 
    2679, 
    2680, 
    2681, 
    2682, 
    2683, 
    2684, 
    2685, 
    2686, 
    2687, 
    2688, 
    2689, 
    2690, 
    2691, 
    2692, 
    2693, 
    2694, 
    2695, 
    2696, 
    2699, 
    2700, 
    2701, 
    2702, 
    2703, 
    2704, 
    2705, 
    2706, 
    2707, 
    2708, 
    2709, 
    2710, 
    2711, 
    2712, 
    2713, 
    2714, 
    2715, 
    2716, 
    2717, 
    2718, 
    2719, 
    2720, 
    2721, 
    2722, 
    2723, 
    2724, 
    2725, 
    2726, 
    2727, 
    2728, 
    2729, 
    2730, 
    2731, 
    2732, 
    2733, 
    2734, 
    2735, 
    2736, 
    2737, 
    2738, 
    2739, 
    2740, 
    2741, 
    2742, 
    2743, 
    2744, 
    2745, 
    2746, 
    2747, 
    2748, 
    2749, 
    2750, 
    2751, 
    2752, 
    2753, 
    2754, 
    2755, 
    2756, 
    2757, 
    2758, 
    2759, 
    2760, 
    2761, 
    2762, 
    2763, 
    2764, 
    2765, 
    2766, 
    2767, 
    2768, 
    2769, 
    2770, 
    2771, 
    2772, 
    2773, 
    2774, 
    2775, 
    2776, 
    2777, 
    2778, 
    2779, 
    2780, 
    2781, 
    2782, 
    2783, 
    2784, 
    2785, 
    2786, 
    2787, 
    2788, 
    2789, 
    2790, 
    2791, 
    2792, 
    2793, 
    2794, 
    2795, 
    2796, 
    2797, 
    2798, 
    2801, 
    2802, 
    2803, 
    2804, 
    2805, 
    2806, 
    2807, 
    2808, 
    2809, 
    2810, 
    2811, 
    2812, 
    2815, 
    2817, 
    2819, 
    2820, 
    2821, 
    2822, 
    2823, 
    2824, 
    2825, 
    2826, 
    2828, 
    2829, 
    2830, 
    2831, 
    2832, 
    2833, 
    2834, 
    2835, 
    2836, 
    2837, 
    2838, 
    2839, 
    2840, 
    2843, 
    2845, 
    2847, 
    2849, 
    2851, 
    2852, 
    2853, 
    2854, 
    2855, 
    2856, 
    2857, 
    2858, 
    2860, 
    2861, 
    2862, 
    2863, 
    2864, 
    2865, 
    2866, 
    2867, 
    2868, 
    2870, 
    2872, 
    2873, 
    2874, 
    2875, 
    2876, 
    2877, 
    2878, 
    2879, 
    2881, 
    2882, 
    2883, 
    2884, 
    2885, 
    2886, 
    2887, 
    2888, 
    2889, 
    2890, 
    2892, 
    2894, 
    2896, 
    2897, 
    2898, 
    2899, 
    2900, 
    2901, 
    2902, 
    2903, 
    2905, 
    2906, 
    2907, 
    2908, 
    2909, 
    2910, 
    2911, 
    2912, 
    2913, 
    2915, 
    2917, 
    2918, 
    2919, 
    2920, 
    2921, 
    2922, 
    2923, 
    2924, 
    2926, 
    2927, 
    2928, 
    2929, 
    2930, 
    2931, 
    2932, 
    2933, 
    2934, 
    2935, 
    2936, 
    2937, 
    2938, 
    2939, 
    2940, 
    2943, 
    2945, 
    2947, 
    2949, 
    2951, 
    2953, 
    2955, 
    2956, 
    2957, 
    2958, 
    2959, 
    2960, 
    2961, 
    2962, 
    2964, 
    2965, 
    2966, 
    2967, 
    2968, 
    2969, 
    2970, 
    2971, 
    2972, 
    2974, 
    2976, 
    2977, 
    2978, 
    2979, 
    2980, 
    2981, 
    2982, 
    2983, 
    2985, 
    2986, 
    2987, 
    2988, 
    2989, 
    2990, 
    2991, 
    2992, 
    2993, 
    2994, 
    2996, 
    2998, 
    3000, 
    3001, 
    3002, 
    3003, 
    3004, 
    3005, 
    3006, 
    3007, 
    3009, 
    3010, 
    3011, 
    3012, 
    3013, 
    3014, 
    3015, 
    3016, 
    3017, 
    3019, 
    3021, 
    3022, 
    3023, 
    3024, 
    3025, 
    3026, 
    3027, 
    3028, 
    3030, 
    3031, 
    3032, 
    3033, 
    3034, 
    3035, 
    3036, 
    3037, 
    3038, 
    3039, 
    3040, 
    3042, 
    3044, 
    3046, 
    3048, 
    3049, 
    3050, 
    3051, 
    3052, 
    3053, 
    3054, 
    3055, 
    3057, 
    3058, 
    3059, 
    3060, 
    3061, 
    3062, 
    3063, 
    3064, 
    3065, 
    3067, 
    3069, 
    3070, 
    3071, 
    3072, 
    3073, 
    3074, 
    3075, 
    3076, 
    3078, 
    3079, 
    3080, 
    3081, 
    3082, 
    3083, 
    3084, 
    3085, 
    3086, 
    3087, 
    3089, 
    3091, 
    3093, 
    3094, 
    3095, 
    3096, 
    3097, 
    3098, 
    3099, 
    3100, 
    3102, 
    3103, 
    3104, 
    3105, 
    3106, 
    3107, 
    3108, 
    3109, 
    3110, 
    3112, 
    3114, 
    3115, 
    3116, 
    3117, 
    3118, 
    3119, 
    3120, 
    3121, 
    3123, 
    3124, 
    3125, 
    3126, 
    3127, 
    3128, 
    3129, 
    3130, 
    3131, 
    3132, 
    3133, 
    3134, 
    3136, 
    3138, 
    3140, 
    3142, 
    3144, 
    3145, 
    3146, 
    3147, 
    3148, 
    3149, 
    3150, 
    3151, 
    3153, 
    3154, 
    3155, 
    3156, 
    3157, 
    3158, 
    3159, 
    3160, 
    3161, 
    3163, 
    3165, 
    3166, 
    3167, 
    3168, 
    3169, 
    3170, 
    3171, 
    3172, 
    3174, 
    3175, 
    3176, 
    3177, 
    3178, 
    3179, 
    3180, 
    3181, 
    3182, 
    3183, 
    3185, 
    3187, 
    3189, 
    3190, 
    3191, 
    3192, 
    3193, 
    3194, 
    3195, 
    3196, 
    3198, 
    3199, 
    3200, 
    3201, 
    3202, 
    3203, 
    3204, 
    3205, 
    3206, 
    3208, 
    3210, 
    3211, 
    3212, 
    3213, 
    3214, 
    3215, 
    3216, 
    3217, 
    3219, 
    3220, 
    3221, 
    3222, 
    3223, 
    3224, 
    3225, 
    3226, 
    3227, 
    3228, 
    3229, 
    3231, 
    3233, 
    3235, 
    3237, 
    3238, 
    3239, 
    3240, 
    3241, 
    3242, 
    3243, 
    3244, 
    3246, 
    3247, 
    3248, 
    3249, 
    3250, 
    3251, 
    3252, 
    3253, 
    3254, 
    3256, 
    3258, 
    3259, 
    3260, 
    3261, 
    3262, 
    3263, 
    3264, 
    3265, 
    3267, 
    3268, 
    3269, 
    3270, 
    3271, 
    3272, 
    3273, 
    3274, 
    3275, 
    3276, 
    3278, 
    3280, 
    3282, 
    3283, 
    3284, 
    3285, 
    3286, 
    3287, 
    3288, 
    3289, 
    3291, 
    3292, 
    3293, 
    3294, 
    3295, 
    3296, 
    3297, 
    3298, 
    3299, 
    3301, 
    3303, 
    3304, 
    3305, 
    3306, 
    3307, 
    3308, 
    3309, 
    3310, 
    3312, 
    3313, 
    3314, 
    3315, 
    3316, 
    3317, 
    3318, 
    3319, 
    3320, 
    3321, 
    3322, 
    3323, 
    3324, 
    3325, 
    3326, 
    3327, 
    3328, 
    3331, 
    3332, 
    3333, 
    3334, 
    3335, 
    3336, 
    3339, 
    3340, 
    3341, 
    3342, 
    3343, 
    3344, 
    3347, 
    3348, 
    3349, 
    3350, 
    3351, 
    3352, 
    3355, 
    3356, 
    3357, 
    3358, 
    3359, 
    3360, 
    3361, 
    3362, 
    3363, 
    3364, 
    3367, 
    3368, 
    3369, 
    3370, 
    3371, 
    3372, 
    3373, 
    3376, 
    3377, 
    3378, 
    3379, 
    3380, 
    3381, 
    3384, 
    3385, 
    3386, 
    3387, 
    3388, 
    3389, 
    3390, 
    3391, 
    3392, 
    3393, 
    3394, 
    3395, 
    3396, 
    3397, 
    3398, 
    3401, 
    3402, 
    3403, 
    3404, 
    3405, 
    3406, 
    3407, 
    3410, 
    3411, 
    3412, 
    3413, 
    3414, 
    3415, 
    3416, 
    3419, 
    3420, 
    3421, 
    3422, 
    3423, 
    3424, 
    3427, 
    3428, 
    3429, 
    3430, 
    3431, 
    3432
  ], 
  "heads": [[3097, 0, 0], [3067, 0, 0], [3039, 0, 0]], 
  "attrs": {"mxnet_version": ["int", 10901]}
}